notebooks/lstm_model.pt (torch, 56949 bytes, 9 tensors)

lstm.weight_ih_l0 f4 [128, 3]
00000000: 8eb1 ab3e aec6 503d 0b27 b03e a29f 5fbe
00000010: 6e73 bd3e dc73 9bbe 48ff f4bc 321a 8dbf
00000020: a943 d8be 9153 debe 4f24 633e 43c4 bcbe
00000030: f74d d33e ab2c b0bd 621d 313f 5f66 543e
00000040: 0b88 2b3e e1c8 213e 97e1 22be aea1 853e
00000050: e9ef 98be e2c1 0b3e 233c 9a3a 6fbc debe
00000060: a935 e2be 6273 85be d12e 05bf 33e3 46bf
00000070: b60a 033e 9703 72be 7f2d 14be 6342 4cbe
00000080: 517e 6b3e 03ea 19bf 1bdb 613e 2717 3bbe
00000090: ac0e 603e 9416 983f f253 c23e 7705 fe3c
000000a0: bfdc 2c3f f253 c93e 0136 d4be 1979 2b3f
000000b0: 5e2a 21bf aeaf 36bf 1e4d 473f 5a71 49bf
000000c0: b567 a0be c5fb a0be 5674 153d 0164 ca3e
000000d0: 0878 c53e 77f3 b23e 2095 1b3e 8824 dbbb
000000e0: a74a b93e 8218 313f a942 07bf 400a 923e
000000f0: 92b5 c63e a76d be3e 5f67 dc3d d2f1 c1be
00000100: 2bf5 bb3e 51f7 32bf 6266 d03e 5f7a b3be
00000110: 49c8 d93e b38f d53e 25c6 953f 8c5a 813e
00000120: d142 d1bf 93fb d0bd 2e06 46bf f80f 85bd
00000130: f082 3b3f f541 2c3d 4a35 f03e 73af 3fbd
00000140: 7ad2 d43e cb3b 593f 57eb 5fbe efbe 843e
00000150: 29f7 2b3f 2705 01bf 131f 073f 4943 9ebf
00000160: 4a7e b8bd 3828 40bf 4476 2fbf 032a c93d
00000170: 4afa dfbe 0c3b ee3c 3bec 83bf 5a16 d83e
00000180: 57a0 f83d 7875 853f 774b 983e 676b 4ebf
00000190: e9ff f03e ed3c 41bf 9ad0 d63f 70a1 0f3e
000001a0: bc20 a13f ede7 37bf a395 61be d43d 21bf
000001b0: ef04 4a3d 0a73 103f 3a7a cf3d 47f6 3f3f
000001c0: 1441 9d3d ef56 413f 891e 0cbf 5781 24be
000001d0: 21d3 11bf 4d96 0a3f 66f4 5cbe 3d7c 0b3f
000001e0: 51ef edbd d925 5c3e 5089 393f e83d 893f
000001f0: 97fd 193e 4d9c 783f aada 83be 26e2 35bf
00000200: 7a43 52bf 9213 bebf 3d2f d4be 824f 33bf
00000210: 8d00 903e df90 30bd 7334 89bd 8414 8fbf
00000220: 2331 653c 3597 c1bf a098 40bd 3b66 ce3e
00000230: c489 d7be 7e15 0d3e 6e19 383f 2f6f 923e
00000240: 006b 633c 6751 84bb 0716 713e 328e 763f
00000250: a737 04bf e053 c63e 4f02 c93f e1be 8cbd
00000260: 2bf0 8e3f 6828 cdbf 8f37 6ebe 1ef3 25c0
00000270: 0083 41bf 49f7 5a3d 7d1f 0dbf 27df 0cbf
00000280: 74eb 6e3d 3376 5abf 5ad7 a13d 7c87 3f3e
00000290: 991e 0dbf a503 85be 5634 1f3f 6381 69bf
000002a0: 4075 b9bf 9971 4c3e df16 bfbf a273 02bf
000002b0: f644 ba3e 02db d9be 882a 69be 71d5 6f3e
000002c0: 408d f3bd 597f a3bd 7a8e 363e b155 ec3e
000002d0: fbb3 333f e0f4 07be 5bcf 993d e1b9 7dbf
000002e0: 777a b9bc cc43 f2bd cfbc d8bc 7690 00bf
000002f0: cff3 debe 40b0 cd3f fd19 19be ce43 3c3f
00000300: 5d92 13bf e7b7 033e 3e43 51be d8bb 7dbe
00000310: e03b fabe 8063 25bf 8eec 923f 90b8 65be
00000320: 0e01 143f 648f 71bd 883a 08bf d70e 22bf
00000330: a6f3 20bf bbcb 123d 1196 46be 909a 813f
00000340: 11b4 473e 024b 873e 5ccc 0bbf 4a7e 5abd
00000350: 63ab 36be 35fa 883f 213f 8a3e d0cc 353f
00000360: 4ec1 a43e d42f 9e3e 09b1 213f 9388 29be
00000370: 43ab 77be 293c 85bf 6c07 e4be 822d ed3b
00000380: c9fc 2b3f b688 bcbf 8246 ecbd 7aad 4ebf
00000390: 6463 97bf a12f 62be 7bbd 933e 9d6b bf3e
000003a0: 0351 d13e a52e cd3e 239e 083f 27a0 3ebe
000003b0: 2351 56be 0163 9dbe 54f8 d73d 4919 01be
000003c0: 307b 0e3e 2b60 cc3e 7b62 53bf 982c d63f
000003d0: 217d aabd 88ed df3e c6f0 4cbe e1c9 07bf
000003e0: ef2c c73e 63ed 083e 8b6c 23bf f270 243f
000003f0: 6152 15bf cdb2 68bf 07e4 42bf ff4e a3be
0.335339 0.050970726 0.34404787 -0.21838239 0.37002128 -0.3036183 -0.029906884 -1.1023619
-0.4223912 -0.4342313 0.2218182 -0.36868486 0.4127042 -0.0860227 0.6918546 0.20742176
0.16751115 0.15799285 -0.15906368 0.26099914 -0.29870537 0.13648179 0.001176719 -0.43503138
-0.44181564 -0.26064593 -0.5202456 -0.7769043 0.12797055 -0.23634182 -0.1447048 -0.199472
0.22997405 -0.601227 0.22056238 -0.1827055 0.21880597 1.188189 0.3795467 0.031008465
0.6752433 0.39321858 -0.41447452 0.66981655 -0.6295527 -0.71361816 0.77852046 -0.78688586
-0.31329122 -0.31442085 0.0364879 0.39529422 0.3856814 0.34951374 0.15193605 -0.0066877045
0.36189768 0.6917802 -0.5283609 0.28523445 0.38810402 0.37193033 0.10761904 -0.37879807
0.36710486 -0.69908625 0.40703112 -0.350543 0.42535618 0.41711196 1.1701094 0.25264394
-1.6348516 -0.10204234 -0.7735318 -0.064971864 0.7324667 0.04205509 0.46915656 -0.04679818
0.4156683 0.8485686 -0.21867119 0.2592692 0.6717401 -0.50398487 0.5278179 -1.2364284
-0.09008463 -0.7506137 -0.68539834 0.09822466 -0.43745643 0.02908089 -1.0306467 0.42204553
0.121399574 1.0426474 0.29745075 -0.8063263 0.47070244 -0.7548359 1.678241 0.14026427
1.2588115 -0.71838266 -0.22029738 -0.6298497 0.04932111 0.56425536 0.10130735 0.74985164
0.07678428 0.75523275 -0.5473409 -0.16064964 -0.5696278 0.5413559 -0.21577606 0.5448645
-0.116179116 0.21498813 0.7247515 1.0722017 0.15038143 0.97113496 -0.25752765 -0.710482
-0.8213421 -1.4849722 -0.4144229 -0.70043194 0.2812542 -0.04310691 -0.06699457 -1.1178136
0.013988766 -1.512427 -0.047020555 0.4031237 -0.42097294 0.1377773 0.719138 0.2860045
0.013880491 -0.004038024 0.23543559 0.9631072 -0.5164742 0.38735867 1.570383 -0.06872345
1.1167043 -1.6027956 -0.23263381 -2.5929637 -0.75590515 0.053458486 -0.5512617 -0.55028003
0.058330014 -0.8533661 0.07902403 0.18704027 -0.55124813 -0.25979343 0.62189233 -0.91213053
-1.4488907 0.19965209 -1.4928855 -0.5095769 0.36380738 -0.42549902 -0.2277013 0.23421265
-0.11892176 -0.07983274 0.17827788 0.46159127 0.70196503 -0.13277006 0.07510253 -0.99111754
-0.022641404 -0.118293375 -0.026457218 -0.5022043 -0.43545386 1.6069412 -0.1495132 0.7354096
-0.5764521 0.12863122 -0.20435807 -0.24778688 -0.48873806 -0.6460495 1.1478441 -0.22433686
0.5781411 -0.05897464 -0.5321431 -0.63303894 -0.6287178 0.035838824 -0.19393183 1.0125294
0.19502284 0.26424414 -0.546087 -0.053343095 -0.17838816 1.0701357 0.2700129 0.71015644
0.3217873 0.30895865 0.6316076 -0.16556005 -0.24186425 -1.0408984 -0.44536912 0.007238091
0.67182595 -1.4729221 -0.11536886 -0.80733454 -1.1827207 -0.22088481 0.288555 0.3738679
0.4088212 0.4007465 0.533663 -0.18615781 -0.20929389 -0.30739596 0.10545412 -0.12607302
0.1391418 0.3991712 -0.82572144 1.6732359 -0.08324648 0.4373591 -0.20013723 -0.5304242
0.3890147 0.13371806 -0.638375 0.6423484 -0.58328825 -0.9089783 -0.7612919 -0.31896207

lstm.weight_hh_l0 f4 [128, 32]
00000000: 8e19 b63e 22e0 93be 65ba 23bf 7852 babe
00000010: b152 bb3e a2b8 bcbe 9844 a93e 90ea 213e
00000020: 97da 4e3f 87bb 0c3f 484b cebe a7bd 893e
00000030: 41fb 093d 5e4b a83e 81e9 843e 2816 9d3e
00000040: e155 57bb 40cc cd3c 0d91 bdbe e34c 39bf
00000050: da85 a5be c492 2fbd 1fc1 babf 8d9a 3ebe
00000060: f046 ed3e 49c5 0fbe c49b 293f 9cbf 4abf
00000070: cf9c 92be a20f eb3e 2a49 44be 3603 a7bf
00000080: 0363 4b3f 0a08 38bd 96a8 98bd 8c51 23bf
00000090: 7b76 073e db1e 51bf 48bc 3bbe 03a9 bbbe
000000a0: c888 083f 57d5 223d d4cd 05be 6ec8 22bf
000000b0: 0519 fe3e f9d8 0e3f 2f4f acbd 8b12 97be
000000c0: 00c3 e2be 35f6 b1be 30b1 673f cd62 ce3f
000000d0: 2465 f1be 3b7e 23be bd68 8d3e 5f8a b0be
000000e0: 89e3 90be 03a5 ec3d 77fe 50bf bf96 533f
000000f0: 468d b3be 604b c53e 008b 293f f3ce 9bbe
00000100: d55d e7be b4f3 63be 72d8 8b3e 4567 7ebe
00000110: d923 c8bb f87b 00bf 1a25 123e 4111 873f
00000120: 126c 853f e95f 24bf 3fe1 413e fede 133f
00000130: a763 ea3d d462 9f3e 7a90 bbbe c38f 8dbe
00000140: a142 88bf b9e4 703b 8f7b 813f 26bb 863f
00000150: cc3d 1abe 2b34 373f f8de c33d 2af8 a73d
00000160: 1097 8ebf 1755 323e 4705 89bf a52e ab3e
00000170: 117d 313f 0c82 ce3d 30e9 323e 7260 6f3e
00000180: fee2 7fbe 24f0 2b3e dced e8bd 2cfe c93e
00000190: e55a a7be 27a5 4cbd 7ca8 bd3d b9c8 aebe
000001a0: 9c73 b5be ea62 aabe 2944 a6be d349 fb3d
000001b0: 917d 383c 11cb 1dbe 1e10 153e d9f8 67be
000001c0: de84 f83e d2d6 44be 2f4e a5bd 3e7e bf3e
000001d0: 1d85 85be b809 063f 6a52 403f 46d2 39bf
000001e0: f7ce 0abf 3d67 8abc 5e81 bebe 08f2 893f
000001f0: 11dc 1ebe 1019 67be 9a47 1d3f 6cd8 d73e
00000200: 74fc 843f 87cb 7abe 2496 96be dbff 11bf
00000210: 970a 913e c9ce 843f bd01 873e fce8 8c3e
00000220: 6db9 813f 55cf 273f f970 393f 7981 eebe
00000230: e3b6 d3be 6720 b2bb b3ed 2c3f e0cf f2be
00000240: 8f21 413d e4bc d93e 4be7 60be a332 79bd
00000250: bbd7 cebe a06f ed3e 5eda 39bf 2b8f ec3e
00000260: 1d6e 7bbe 65aa 2a3e 2732 ff3e 3ca8 29be
00000270: 0e08 c73e a02b db3e 5fc5 103f 9f68 60bf
00000280: d4b0 21bc 8a13 6c3f 33be 163f d8c2 1a3e
00000290: 40e8 70be a8b6 4f3f cd8d 0dbf 94a7 833f
000002a0: 7afc 953f 85da 03bf 3cb7 0a3f 124a a33e
000002b0: 1fb8 f4be 43ea 65be bd60 4a3d 09d1 9b3e
000002c0: e485 9d3d e23b 8b3f 27f4 89bf 3df9 b23e
000002d0: 21bb 6c3d 8908 5a3f d443 66bf 51ff ea3e
000002e0: c881 58be 3ce3 843e 0b99 16be 54dd 463e
000002f0: 521d d33e 4b88 5fbd 5623 d33e 499b 99be
00000300: 7d5d aa3e 5a06 09be 4d72 003f 3a4f 7b3e
00000310: f573 1fbf 8c83 09be 9b7c 803e aab2 4bbe
00000320: 43ee 9ebe 218a eabc ccbe f93e 2f1e 39bf
00000330: 9fc2 d1be c550 d63e b579 0e3f 15b2 c3be
00000340: 4b9d b33e 3b3c c1bd 23d2 9ebe 25a7 29bc
00000350: 0fe7 64bf 1cbe ca3e 7104 2f3f 8734 14bf
00000360: e0b0 bfbf c487 6c3e e024 2c3f 3a12 dbbe
00000370: 944c d93d d1cd 403c d6e9 c2be d93d ba3e
00000380: 4dac 00be 3071 12bf dc36 c3bd be0b 723e
00000390: 6228 9e3d 2380 3e3d 270f 903e f084 ad3f
000003a0: 1bbe 093f 84af d1be 55cf 76be 183f dfbe
000003b0: 85fc 183d 6f3c 543f 7c16 673d 44a8 55be
000003c0: 30db 9f3e 9e70 13bf 53d7 1d3d aaec 0e40
000003d0: 6534 42be 35ae b8be 85f5 3abf 43f5 86be
000003e0: 1169 1dbf d5f0 2bbe 250d b4bf 9ccc 813f
000003f0: 364c 633e ecb6 2fbd ab4c 98be cf0e 95be
0.35566372 -0.28881937 -0.6395629 -0.36391044 0.36586526 -0.36859614 0.33060145 0.15812135
0.8080229 0.54973644 -0.4029181 0.26902506 0.03368688 0.3287 0.259594 0.30680966
-0.0032857584 0.025121808 -0.37024727 -0.72382945 -0.32328683 -0.042864576 -1.4590186 -0.18613644
0.46343184 -0.14040102 0.66253304 -0.7919862 -0.2863526 0.45910364 -0.19168535 -1.3047855
0.79447955 -0.04492954 -0.0745403 -0.63796306 0.1322879 -0.81687707 -0.18333542 -0.36652383
0.5333371 0.039754238 -0.13066798 -0.6358708 0.49628463 0.55799824 -0.084135406 -0.29506335
-0.44289398 -0.34758154 0.9050474 1.6123902 -0.47147477 -0.15966122 0.2761897 -0.3448057
-0.28298596 0.11554911 -0.8163828 0.82651895 -0.3506872 0.3853407 0.6622772 -0.30431327
-0.45188776 -0.22260934 0.27313572 -0.24844082 -0.006107789 -0.5018916 0.14271966 1.055214
1.0423605 -0.6420885 0.18933581 0.57762134 0.114447884 0.31130087 -0.36633664 -0.27648744
-1.0645334 0.0036757423 1.0115832 1.0525863 -0.15062636 0.71563977 0.09564012 0.082016304
-1.1139851 0.17415272 -1.0704736 0.33434024 0.6933146 0.10083398 0.17471766 0.23376635
-0.24988934 0.16790825 -0.11373493 0.3945173 -0.32686535 -0.04996219 0.092606515 -0.34137514
-0.35439765 -0.3327859 -0.32473877 0.1226994 0.011260406 -0.15409495 0.1455693 -0.22653522
0.4853887 -0.19222572 -0.08071553 0.37401003 -0.2607812 0.5235858 0.75125754 -0.72586477
-0.54222053 -0.016894931 -0.37208074 1.0776987 -0.15513636 -0.22568154 0.6143738 0.42157304
1.0389543 -0.24491702 -0.29411423 -0.5703103 0.28328392 1.0375606 0.26368514 0.27521503
1.0134712 0.6555074 0.7243801 -0.46583155 -0.4135047 -0.0054359916 0.675502 -0.4742422
0.047151145 0.42526925 -0.21963231 -0.060839307 -0.40398964 0.46374226 -0.72598827 0.46202978
-0.24553724 0.16666563 0.4984295 -0.16568083 0.38873333 0.4280672 0.56551164 -0.8765964
-0.009868819 0.92217314 0.5888397 0.1511339 -0.23526096 0.81138086 -0.55294496 1.0285516
1.1717675 -0.5150531 0.54185843 0.3189245 -0.47796723 -0.22452645 0.049408663 0.3043292
0.07691553 1.087765 -1.0777634 0.3495578 0.057795648 0.85169274 -0.8994725 0.45897916
-0.21143258 0.25954616 -0.14706819 0.19420367 0.41233307 -0.05457334 0.41237897 -0.30001286
0.3327445 -0.13381329 0.5017441 0.24541941 -0.6228631 -0.13429087 0.25095066 -0.19892374
-0.31041154 -0.028630318 0.4877838 -0.7231168 -0.40968797 0.41858497 0.5565446 -0.38221803
0.35080943 -0.09435316 -0.31019697 -0.010354792 -0.8941507 0.39598167 0.6836615 -0.5789265
-1.4975853 0.23098665 0.67243767 -0.42787343 0.10610309 0.01176782 -0.38069028 0.3637531
-0.12565728 -0.5720396 -0.09531948 0.23637292 0.07722546 0.04650892 0.2813656 1.3556194
0.538057 -0.4095422 -0.24102528 -0.43602824 0.037350196 0.82904714 0.056417927 -0.2086497
0.31221914 -0.57593715 0.038535427 2.2331948 -0.189653 -0.3607041 -0.73030883 -0.26358995
-0.61488444 -0.16791089 -1.4066511 1.0140567 0.22197041 -0.042899057 -0.29745993 -0.2911286

lstm.bias_ih_l0 f4 [128]
00000000: 19a1 26bd a646 4ebe 80a8 033f 85a4 753d
00000010: 1d6e c63e 12d9 5e3f a625 3e3f f2c5 cd3e
00000020: bbf0 463b 9fc5 d23e 28dd d5bd 23db 9d3e
00000030: 06be 04be 165f 7b3e 076e 00be 24c5 bcbd
00000040: fa07 fc3c dfd9 203f 5267 083f 9492 273f
00000050: b96c ccbd c33b 7e3e c6b8 413f e127 da3d
00000060: 273b 893e c89f e03d 2e11 423e 4749 7f3e
00000070: 4430 053f 46ef 8ebe e117 0b3f 0397 913e
00000080: 2377 fe3e 4c07 1b3b 4d5a f13d ed70 a93e
00000090: b025 503d a459 51be 1d10 bc3e cbcd 973d
000000a0: ee9b bf3e e282 01be 8d87 bbbc 39ac 493e
000000b0: f5ac 1ebe 0e72 fe3d 1d4d debc 5927 f33d
000000c0: fb89 703e d018 3fbe 2a8f 2b3e 299e c73e
000000d0: 4e6a 523c 4b90 483e 1739 32bd 16a3 993e
000000e0: 5dfe 833e a702 ae3e d259 63be b78d 773d
000000f0: 76c4 d23e 8a27 ae3d 7af3 ca3e 2a84 b93d
00000100: c092 cd3d c63a a6bd a3a4 4bbe fa54 cdbc
00000110: 1698 a53e 145d d9bd 5121 88be c459 303e
00000120: 0f8f ab3e 9eab aebd 597a bbbd 8c1d 81be
00000130: 3ec6 8c3e a9ab 96be 26b7 363c 9827 6e3d
00000140: b9eb c9bd 4db5 283e f369 babe 3bee 38be
00000150: dcd8 bb3c b956 b2bc da08 aebe 894b 74be
00000160: b5df 50be 418a 0f3e ec85 b9bb 4615 9fbc
00000170: 55ff 05be f7af 1a3d 0686 d93e 025c 15be
00000180: 31e9 d13d 0174 a53e d438 c53e e8de f53d
00000190: 7162 1b3f 7b7f 493f 24b7 513f f9cb cd3e
000001a0: f239 993e b939 153e b48b 4cbd 4933 f13e
000001b0: 0b8e 683e 743a 5b3c cccd 7ebd 9f8f 213d
000001c0: ab7f 0a3f 9d6a 523f 3b9a 7a3e c2c1 373f
000001d0: 2fb4 4a3e 34a4 62bc af2a 003f 8209 e03e
000001e0: a251 b9be 2847 7fbd 862f 063e 1f95 d73e
000001f0: 9936 033f b3ec 863d 4354 283f 087c 7d3e
-0.04068098 -0.20144138 0.51428986 0.05997135 0.38755885 0.87049973 0.74276197 0.40190083
0.003035589 0.41166398 -0.10442573 0.3083125 -0.12963113 0.24547991 -0.12541972 -0.09217289
0.030765522 0.62832445 0.53282654 0.65458035 -0.09981675 0.24827485 0.75672567 0.106521375
0.26802942 0.10967976 0.18951866 0.24930297 0.5202677 -0.27916926 0.5433331 0.28435525
0.4970027 0.0023655472 0.11784802 0.33093968 0.05081719 -0.20444351 0.36731043 0.07412299
0.37423652 -0.12647584 -0.022891784 0.19694604 -0.15495665 0.12424098 -0.02713638 0.11872739
0.23490135 -0.18661809 0.16753832 0.38987854 0.012842728 0.19586293 -0.043511476 0.30007237
0.2578 0.339864 -0.22202232 0.060437884 0.41165513 0.08503635 0.39638883 0.090584114
0.10037756 -0.08116679 -0.19887023 -0.025064934 0.32342595 -0.10613456 -0.26587918 0.17221743
0.33507583 -0.08528827 -0.09154195 -0.25217855 0.27494997 -0.2942784 0.011152064 0.05814323
-0.09859414 0.16475411 -0.36408958 -0.18059628 0.022930555 -0.021769868 -0.33991128 -0.2385694
-0.20397837 0.14017583 -0.0056617167 -0.019419324 -0.13085683 0.03776547 0.42485064 -0.1458588
0.10249556 0.32315066 0.3851992 0.120054066 0.60697085 0.78710145 0.81920075 0.4019468
0.2992702 0.145728 -0.04993792 0.4710944 0.22710435 0.0133806355 -0.062207982 0.03944361
0.54101056 0.8219393 0.24472897 0.71780026 0.19795297 -0.013833094 0.5006513 0.43757254
-0.36195093 -0.06232372 0.13104066 0.42105958 0.51255184 0.065881155 0.65753573 0.24754345

lstm.bias_hh_l0 f4 [128]
00000000: 32d8 c93d 555e 49be fa2e 013f 9fa1 723e
00000010: f549 e53e 911f 2e3f b886 2d3f 3dcc 413e
00000020: 4842 da3d 5634 a33e 7a1f 85bd 2b6c 9d3e
00000030: 929a fabd d0df 5b3e 60f2 ee3d 2dee f23d
00000040: b561 c83c 6d42 2c3f e96b f03e 56ba 103f
00000050: 4cce 0d3e c493 583e 5d57 313f 0816 7b3d
00000060: 1694 db3e 1ba3 46bd 0169 8e3b e3ca 9b3e
00000070: f925 0d3f 6dba 4fbe d929 533f 30c4 23bd
00000080: da4b 8f3e a50e 60bd c525 ea3d 149d 633e
00000090: c974 c6bc 7371 90be 943e 873e 5788 183e
000000a0: aa15 bd3e cee4 72be aea8 853e e5a5 583e
000000b0: fc52 f43c 945e 283e 9a5c 823e 0ccc 103e
000000c0: 810a c13d b35e 843c bcee 343e 8ffb 9f3e
000000d0: d80b ba3c 3462 753b f19b b73d 70c2 493e
000000e0: f50c 943e b0b5 7d3e 185c 913c 7df0 5b3e
000000f0: a74a 553e 6d12 ea3d 15ec 5a3e ce50 413e
00000100: e94a 2a3e e58e 07be 6866 b5be 6ac3 04bd
00000110: 5d04 9d3e 5e67 05be 8d73 62be d435 4a3e
00000120: bc8b af3e 3ed6 efbc fcfb 98be 5f6b 15be
00000130: 9a60 ffbc b6e1 acbe 7d35 8c3e 8899 b2bd
00000140: 6fe5 cd3c b5ca 2cbe c4b3 90be fbbc 8ebe
00000150: 0477 d83d a8c9 0bbd fb32 01bf 7efe ddbe
00000160: 9ef2 7e3c d027 ef3d fb4e 4abe 6592 073d
00000170: 5a59 01be 0a07 fb3d acea 913e 33ae 8cbe
00000180: 93a9 99bd 6315 ad3e 568e 0c3f 9f6f e83d
00000190: 6494 cd3e 78cb 343f cf51 4c3f 7120 1f3f
000001a0: 12dd dc3d e389 9f3d 6a76 2fbe 66b5 b83e
000001b0: a99a 753e 1fa6 563e 6b21 4d3e 717c 30be
000001c0: f5c3 933e 03bd 153f 5dda 983e 4571 553f
000001d0: 3e5e 9f3e 3d7b 983e 2bb1 243f 9520 eb3e
000001e0: 0528 a0be 508d deba 7dfb 283d baef bf3e
000001f0: 43e0 563e 0295 d3bd 3f30 563f 41b0 d33b
0.09855689 -0.19664891 0.50462306 0.23694466 0.44782987 0.68016917 0.6778369 0.18925567
0.106571734 0.31875867 -0.06500144 0.30746588 -0.12236513 0.21472096 0.11667323 0.11861835
0.024460653 0.6728886 0.4695733 0.56534326 0.13848227 0.21150118 0.6927393 0.061300308
0.42886418 -0.048495393 0.0043460135 0.30428228 0.55136067 -0.2028596 0.8248573 -0.03998202
0.27987558 -0.054701466 0.11432985 0.2222789 -0.02422561 -0.28211555 0.2641493 0.1489576
0.3693059 -0.23720095 0.26105255 0.21157034 0.029824726 0.16442329 0.25461274 0.14140338
0.094258316 0.016158437 0.17669195 0.3124661 0.022710726 0.0037442567 0.0896529 0.19703078
0.28916135 0.2477634 0.017744109 0.21478458 0.20829259 0.11429296 0.2137912 0.18878481
0.16630138 -0.13238104 -0.35429692 -0.032412924 0.3066739 -0.13027713 -0.22114392 0.19747096
0.34286296 -0.029276963 -0.2987975 -0.1459174 -0.031173993 -0.33765954 0.27384558 -0.0872069
0.025133817 -0.16874202 -0.2826215 -0.27878556 0.105695754 -0.03412786 -0.50468415 -0.43358225
0.015560774 0.116775155 -0.19756691 0.033098597 -0.12631741 0.12257202 0.28499353 -0.27476653
-0.07503047 0.3380538 0.5490469 0.11349415 0.40152276 0.7062297 0.7981233 0.62158877
0.10784353 0.07789972 -0.17135015 0.36075896 0.2398478 0.20961808 0.20032279 -0.1723497
0.2886044 0.58491534 0.29854098 0.8337596 0.3112659 0.29781523 0.64332837 0.45923296
-0.31280532 -0.001697937 0.041255463 0.37487584 0.20983987 -0.10331155 0.8366737 0.00646022

lstm.weight_ih_l1 f4 [128, 32]
00000000: dc04 753b 6681 21bf 5ce7 0e3f c9e5 eb3b
00000010: 236a 8fbe 0f4e 873f 62f1 22bf b2f0 be3e
00000020: 7a6c b4be 2f18 bcbd 5d4a 483f 3556 9d3c
00000030: c3d5 e8be a3ad ee3e 8cc0 f1be 8978 de3e
00000040: 3cf8 7fbd 3626 da3e 3cd8 883d f4dc 203e
00000050: bf5b 14bd 8ae1 3ebf 7537 0e3f 7727 c43e
00000060: b8e6 163f 1864 aebe 719c 683e d90c a03c
00000070: fa10 583f d0a4 e23e 1949 63be ec17 a03e
00000080: 29f5 90bd bf3e 353f d289 623f c5d9 f73d
00000090: b056 b0bd 1250 da3d 7653 873f 60ab 893d
000000a0: 2885 c8bd 06dc 59bf 576d ea3e 94a5 6f3e
000000b0: 6d6b 2cbe 87c0 e43e 4d7b 7abf 1c71 1f3f
000000c0: e3bd bf3e 2efd ad3e 2974 fe3e 20cf f53e
000000d0: 48f7 aa3e 5f49 7d3f 61b7 3fbf dca4 843e
000000e0: d6e7 9fbe 3611 1fbd df17 2abe 23ae 91be
000000f0: 9000 943f 6b98 153e b7c8 ba3e 50fe 1cbe
00000100: 8e99 893e fa91 04bf fcf1 903e 5e61 2dbf
00000110: 0cd8 733f be05 8f3d 16d5 51be 3af2 153e
00000120: 6d35 05bf c293 6d3f 6017 d4be d953 27bf
00000130: f55a 48bd eccc de3e f8c3 823e 2fa7 043e
00000140: 5599 bcbe 0286 d43d 6690 bcbe a40b 733c
00000150: afd6 b3be 0a22 76be ad4a 18bf 16c3 de3e
00000160: a9c9 1f3f 7a3c 12be 5201 573f 2e30 22bf
00000170: 9f69 8fbf 97da ad3d 0f00 99be 019a 75be
00000180: d7c0 3a3f fc4a 8ebf 92cc 453d 0205 8bbe
00000190: 94ea dfbd 87bb 5f3f 2beb f2bc 5745 c43e
000001a0: c24f 123d 73ff 08bf 2942 8ebf beb3 9bbd
000001b0: f314 50bf 4b8c 593d 35ee 3cbd b953 19bf
000001c0: dee7 ca3e 3cd5 cb3e d96a 83bf e16f 2dbe
000001d0: 1efc ddbd d5da a6be 348e 97be 6984 3c3e
000001e0: 0b83 223f 0e22 5abe e8f7 f9bd 9c75 d4be
000001f0: 99b3 efbe 32d7 5d3f 945a 673f 431f e5be
00000200: 07b6 943f 519d a4be 3d3e 443f 6dca 083f
00000210: c2df 6c3e 5418 47bf 2cc7 09bf d322 debe
00000220: 7314 4abe 2d0e be3d cf29 013f 6331 803f
00000230: ad57 7e3f 3010 31bf 0332 0abe fc3e d43e
00000240: e218 da3d d9dd a0be 471e 4dbd 079b a33e
00000250: e3e9 483d 93ea 043e 0288 423f fd10 22bf
00000260: ad40 0bbe 44ef 1abe 5e4d 68be 81a1 b23e
00000270: 7dc0 2dbe fbc7 033d bfa3 37bf 3ffd 2f3f
00000280: a80a 3bbf 6637 963e 5202 92be fb23 bc3e
00000290: 405f 2abf d187 3d3f c838 993f 3255 8e3d
000002a0: cf4c 5b3e 4b86 dfbe 4586 86be f1ae 983e
000002b0: e9b5 3ebf 6f15 9f3e e35f 9bbe c967 503e
000002c0: c574 f93d 61e2 903e 3385 103d e49f 96be
000002d0: e7ad 67bd 1eca 31be 22f4 2e3d 8f34 53be
000002e0: 64e4 b73e 1cca 81be d963 023c 0fb2 96bd
000002f0: b35e 85bf 5b62 96bd 218b 10bf ddd3 1dbf
00000300: 2d27 3abe d83f e93e 389b 51bf 766d 4ebd
00000310: 5a49 08bf 0c6c d2bd 7612 c9be 3def bebe
00000320: 8b63 9f3e f1cc 7bbf 3b78 3b3e 8471 f6be
00000330: fc08 043e e505 863e d7a2 653d fb74 99be
00000340: 4ace 9d3e 956e c4be 4cf2 fcbe 1052 a7be
00000350: c0c2 cabe 7426 c33e 16c9 5dbf 71fb 0c3f
00000360: 605f 3ebf e763 f63e b3db 573f 0ad4 94bf
00000370: f802 9f3e ecaa e73e 1959 bdbe 307d 2ebe
00000380: f659 c0be aefb 69be 34a7 4dbd 83e3 533e
00000390: abc8 213e 815d c93d 01fc 07be 7d5c 98be
000003a0: 8588 85be 7776 91be 3bdd 8c3e f572 993e
000003b0: 8407 6abe eb5f 9cbb aac6 95be a7e9 b5be
000003c0: 6786 c0be 6890 043f cbf9 5abd be8e 9c3e
000003d0: 4419 d73d 620a eebe b183 aa3e 0535 f53e
000003e0: a89a 113e c89b e6be 3639 c13e db16 a33e
000003f0: 2c11 0b3f 5c65 ebbd 2e96 5abe 4fd4 033f
0.003738693 -0.6308807 0.55821776 0.0071990234 -0.28010663 1.0570697 -0.6364957 0.3729301
-0.3523901 -0.091843 0.7823847 0.019206146 -0.45475587 0.4661685 -0.47217214 0.43451336
-0.062492594 0.42607278 0.066818684 0.15709287 -0.03622031 -0.74562895 0.5555337 0.3831136
0.589458 -0.3406074 0.22715928 0.019537376 0.84400904 0.44266367 -0.22195853 0.3126825
-0.070780106 0.7079887 0.8849155 0.12102083 -0.08610284 0.106598035 1.0572345 0.0672214
-0.097910225 -0.85101354 0.45786545 0.23403007 -0.16837855 0.44678137 -0.9784439 0.62281966
0.3744956 0.33982223 0.49697998 0.48009586 0.33391786 0.9894008 -0.7488919 0.25907028
-0.31231564 -0.038834773 -0.16610669 -0.28453168 1.1562672 0.14608924 0.36481258 -0.15331388
0.26874965 -0.5178524 0.2830962 -0.67726696 0.95251536 0.06983517 -0.20491442 0.14643183
-0.52034646 0.92803586 -0.41424084 -0.65362316 -0.04891487 0.43515718 0.25540137 0.129544
-0.36835733 0.103771225 -0.36828917 0.014834318 -0.35124728 -0.24036422 -0.59488946 0.43508214
0.62417084 -0.14280882 0.8398639 -0.63354766 -1.1204108 0.08488958 -0.29882857 -0.23984529
0.729505 -1.1116633 0.048290797 -0.27152258 -0.10933414 0.8739552 -0.029653152 0.38334152
0.035720594 -0.53514785 -1.111394 -0.076026425 -0.81281966 0.05311231 -0.04612561 -0.59893376
0.39630026 0.39811122 -1.0266982 -0.1693721 -0.10839103 -0.3258883 -0.2960068 0.18409885
0.63481206 -0.21302053 -0.122054875 -0.4149598 -0.4681671 0.86656487 0.90372586 -0.44750413
1.161805 -0.32151273 0.7665747 0.5343388 0.23132232 -0.77771497 -0.5381954 -0.43385944
-0.19734363 0.092800476 0.5045442 1.0015072 0.9935253 -0.69165325 -0.1349564 0.41454303
0.10649277 -0.31419256 -0.050077703 0.31954214 0.049051177 0.12980108 0.7598878 -0.6330717
-0.1359889 -0.15130335 -0.22685763 0.34888843 -0.1696796 0.032173138 -0.7173423 0.687458
-0.73063135 0.2933914 -0.28517395 0.367462 -0.6655159 0.74035364 1.1970453 0.069498435
0.21416019 -0.43657145 -0.26274315 0.2982097 -0.7449632 0.3107104 -0.30346593 0.20352091
0.12180475 0.28297713 0.03528328 -0.29418862 -0.05656233 -0.17362258 0.042713292 -0.20625518
0.35916436 -0.2534951 0.007958376 -0.07358181 -1.0419525 -0.073429786 -0.56462294 -0.616514
-0.18179007 0.4555652 -0.8187747 -0.05039736 -0.53236926 -0.102745146 -0.39271897 -0.372919
0.31130633 -0.9835959 0.18307583 -0.4813348 0.12894052 0.26176372 0.0560635 -0.29972062
0.3082145 -0.38365617 -0.49403608 -0.32679796 -0.39601707 0.38115275 -0.8663496 0.5507117
-0.7436428 0.48123094 0.8431961 -1.1627209 0.31056952 0.4524759 -0.3698204 -0.17039943
-0.37568635 -0.22849914 -0.050208285 0.20692258 0.15799205 0.098322876 -0.13279726 -0.29758063
-0.2608072 -0.28410694 0.27512535 0.29970518 -0.2285443 -0.0047721765 -0.2925313 -0.35529825
-0.3760254 0.51782846 -0.053460877 0.30577654 0.10502866 -0.46492296 0.33303598 0.47892013
0.14219153 -0.45040727 0.3773896 0.31853375 0.5432308 -0.11493942 -0.21346352 0.5149583

lstm.weight_hh_l1 f4 [128, 32]
00000000: 91be 36be f5a3 e43e 3dc7 203f dd5f e13e
00000010: 3781 cebe 4d56 773f 3115 30be 1d51 1cbf
00000020: 3111 db3e 4e80 c9bd 0469 66be a5be 073f
00000030: ac00 473f dee8 85bd 6e76 713e f78b 10bf
00000040: 1bd4 f3be 888e 643c 8859 983e e0c6 b8be
00000050: 54f5 ea3e a672 be3e 17df 90be 5c17 613f
00000060: edf7 e6be faea 8a3f ef04 4e3f 1ca6 2a3f
00000070: 4f68 eb3a 3f80 dd3d 8cbf ea3d db57 dc3c
00000080: b679 a9be f0c3 18be 2874 5a3d f616 d8be
00000090: 4492 db3e 6412 213f b90e fc3e e97e c13e
000000a0: 06d3 aa3e 5298 06bf bb17 46be e82e 373f
000000b0: c504 4d3f ea16 e6be 0428 d83e 4f4b 01bf
000000c0: 0d35 cfbd de69 bc3c 0bc1 5a3e b34b 1d3f
000000d0: 7984 01bd 5b86 cc3e acdb d23d 0b64 10be
000000e0: 69b4 9d3e 06b2 db3e b341 453d 20f3 843e
000000f0: 64d5 07bf 8bdf 5e3e e378 353f 475d 0b3f
00000100: 37ff bebe ebc1 0f3d 1b9e d13e 4620 10be
00000110: 5585 a63d 58d6 6ebe efa5 fb3b f8cf 9f3d
00000120: 646a 88be fa48 2e3e 8869 673e 1102 e33e
00000130: 0666 b13e 2352 97be 6271 6b3c f4d8 7b3f
00000140: 2be8 f43c 5cdc f93e 0e75 f43e a96c fc3d
00000150: 807f 8cbe f31c ef3d 435a 583f cd67 d83e
00000160: 3f7c 09bf 0bb1 0d3f 71a7 913e a55a 3b3e
00000170: 568b 78be a200 473e c0bf 4cbf 065a 053f
00000180: 41e0 afbe ea7e f4bd 0f40 363d bcf0 dc3e
00000190: 5450 303e 09c2 43be f528 10bf bf5c 723e
000001a0: 79c7 7ebd a325 bf3d 2b4d 013f dbb0 013c
000001b0: 48a5 3fbf 8d8f e8be 901b 063d 4836 613f
000001c0: d7be c83d d281 8cbe 3206 39be c1d8 ae3e
000001d0: 1dd0 623f 5ad1 363f d9ee 823e b306 9abe
000001e0: 880e 523e b94a 4dbe 7f08 74bf 3382 473e
000001f0: 4313 ca3e 8b19 72be e2fc 01bf 0808 0dbf
00000200: 0f73 60bf 3f69 713c c98b e23e e1c3 d8bc
00000210: 0301 56be fb22 c53f a12f 7e3e d2a7 d43e
00000220: 92cd c5be d77e f4be 99f0 1ebf c90d aa3e
00000230: f982 01bf e954 a03d 6215 f33e 7ff1 0e3e
00000240: e025 dfbe 91a5 f03e ca23 523f fd4e 6f3e
00000250: 8252 133f cbaf 0d3f 6342 903d 8878 923e
00000260: 012f 39bf f980 bf3e 7c6c a1be be91 bc3d
00000270: 4f21 9bbe 686f 8abd 5bd5 063f 473a 403f
00000280: 14fe 7cbe c4c5 db3d 941c 4fbf e244 35bf
00000290: e7bb 17be 32a7 edbd 8fa2 a7bf 8546 fc3e
000002a0: 6ebd 8abf da90 d9be 557f 3fbe fc1e 47bd
000002b0: 9112 1a3f c999 abbe 224f 3a3f ea8d ce3e
000002c0: a03c 19bf cdb3 21be 1780 133f 53ad a6be
000002d0: 756b 9e3e 9822 ba3e 3ba7 f4be 8bb5 553f
000002e0: d023 663e 3388 b93e 025f c2bd d8b7 7b3f
000002f0: da89 bcbf 0b4b 823d 89e9 8ebf 2b96 dd3e
00000300: 7583 0bbe 517b 96be 27fa e8be 3d5c a2be
00000310: a61c 423f 1fb5 6f3f ede5 d4be 199c 22be
00000320: 0ddb 7abd b5cf 19bd 84d3 103f 5285 bd3e
00000330: dad3 a13e b175 563e aee1 273f 2ed8 3c3f
00000340: 8dbb 113e 0a34 073f 6ea4 25bf b594 8fbc
00000350: 18b3 62bf 2869 8e3e 7836 9bbd ca26 613d
00000360: fecd 30be 9492 253e 4ef0 253f 85de 483e
00000370: f5a2 6c3e 928d 09bf a62f a7be aa56 10be
00000380: b399 babe c7ba 2ebe e1b3 ca3e 583c 7fbe
00000390: 6050 40bf 15a9 053f a4ab 0dbf aada 16be
000003a0: ce83 f6be 42d1 4e3d e77c 383e 9ed9 a03e
000003b0: c2d9 a7be b538 da3e 7c59 2abc 83c8 c0be
000003c0: 10a7 e8be 95ab ffbc 02d4 043d de94 aebf
000003d0: d40e 2abf 37bb a23e 4429 afbd 7bc3 323f
000003e0: 87c5 ccbd 222c ba3e 0198 103e d11b 08bf
000003f0: bf5b 8bbd 4ba0 363f 81cf 09bf 2f0a 5dbf
-0.17846133 0.4465634 0.62804013 0.4401845 -0.40332958 0.9661606 -0.17195584 -0.6106127
0.42786554 -0.09838925 -0.22500998 0.53025275 0.777354 -0.065385565 0.23580334 -0.5646357
-0.4762276 0.013949998 0.29755807 -0.3608923 0.45890296 0.37196845 -0.28295204 0.8792627
-0.45111027 1.0852959 0.8047628 0.6665971 0.0017960164 0.108154766 0.11462316 0.026897362
-0.3310067 -0.14918494 0.05333343 -0.42205018 0.4288503 0.62918687 0.49229982 0.37792137
0.33364123 -0.5257617 -0.1934499 0.7155595 0.800854 -0.44939357 0.4221803 -0.50505537
-0.101175405 0.0229997 0.21362703 0.6144363 -0.031620476 0.39946255 0.10295805 -0.14100663
0.30801705 0.4290926 0.04815836 0.2596674 -0.53059983 0.21764962 0.70887583 0.54439205
-0.37304088 0.035097044 0.40940937 -0.14074811 0.081309 -0.23323953 0.007679693 0.07803339
-0.2664367 0.17020026 0.2259885 0.44337514 0.3464815 -0.29554853 0.014370294 0.9837792
0.029895863 0.48800933 0.47745556 0.12325413 -0.27441025 0.116754435 0.8451273 0.42266694
-0.5370521 0.5534827 0.2844806 0.18296297 -0.24271902 0.19433835 -0.7998009 0.5209049
-0.3435078 -0.119382694 0.044494685 0.43152416 0.17218143 -0.19116987 -0.56312495 0.23668192
-0.06220195 0.093333505 0.50508374 0.007915701 -0.74861574 -0.4542202 0.03274113 0.8797345
0.09802025 -0.27442795 -0.1806877 0.34149745 0.88598806 0.71413195 0.2557285 -0.30083236
0.20513356 -0.20048036 -0.95325464 0.19483261 0.3946782 -0.23642556 -0.50776494 -0.5509038
-0.87675565 0.014734565 0.44247273 -0.02646059 -0.20898823 1.54013 0.24822856 0.41534287
-0.386334 -0.4775302 -0.6208587 0.33213642 -0.50590473 0.07828695 0.4747725 0.13959311
-0.43583584 0.47001317 0.8208586 0.23369975 0.5754777 0.55346364 0.07043912 0.28607583
-0.7233735 0.37403086 -0.3152808 0.092074856 -0.3029885 -0.0675953 0.52669305 0.75088924
-0.24706298 0.1073108 -0.8090298 -0.7080823 -0.14817773 -0.116041556 -1.3096484 0.49272552
-1.0839059 -0.42493325 -0.18700917 -0.048613533 0.6018458 -0.33515766 0.72777 0.40342647
-0.5985813 -0.15791245 0.57617325 -0.3255411 0.30941358 0.36354518 -0.47783837 0.8348014
0.22474599 0.36236724 -0.094907776 0.983274 -1.4729569 0.063619696 -1.1165019 0.43278632
-0.13624366 -0.29390958 -0.4550335 -0.31710997 0.75824964 0.93635744 -0.4158167 -0.15879859
-0.06124406 -0.0375516 0.5657275 0.37015778 0.31606942 0.20943333 0.65578735 0.73767364
0.14231701 0.5281378 -0.64704025 -0.017526964 -0.88554525 0.27814603 -0.075787485 0.054968633
-0.1726608 0.16169196 0.648198 0.19616134 0.23109038 -0.53731644 -0.3265354 -0.1409556
-0.36445388 -0.17063437 0.39590362 -0.24925363 -0.7512264 0.52211124 -0.5534003 -0.14731851
-0.48147434 0.050492533 0.18016396 0.3141603 -0.32783324 0.4262139 -0.010397311 -0.37652978
-0.4543996 -0.031209746 0.03242875 -1.3639181 -0.66428876 0.3178346 -0.08552793 0.6982953
-0.09998613 0.36361796 0.14120485 -0.53167444 -0.068046086 0.7133834 -0.5383225 -0.86343664

lstm.bias_ih_l1 f4 [128]
00000000: 551c 5abe 2dab 843e bc47 20be 137d 0b3e
00000010: 280f eb3e b588 1c3f 3f87 7abe 1c0f 6d3e
00000020: 8675 893d c16c d83d a617 3b3e fefc f13e
00000030: b02b fb3e c665 dabd cb66 e13e 5e03 2d3f
00000040: 2d1d bbbc 0013 e33e 6861 75be 3363 d53d
00000050: a46d 083e 155a 99be ac01 b73d 6fed 1dbb
00000060: 03aa 93bd e9fc 2f3f cc81 043f 2803 73be
00000070: d695 e23d 728b 913e 722d 2c3e f721 a2be
00000080: b10b c8be 9b7b 2cbc 5ad3 e7be 7bbd 83bd
00000090: 8e5e 39be 8564 61be c9e0 bcbd be02 c4bd
000000a0: fa95 40bd a372 c33d 88a4 3b3e 2264 42be
000000b0: 7e7c c1be 7efc c03d 953b 49be a2ae 12bf
000000c0: 4767 5bbe 6527 1e3e df20 fabe 2da5 a63d
000000d0: bcb3 77be 8a80 d63c 3e23 cabe 1f8c debe
000000e0: f43e 02bf f3cf 14bf 02dd 123e 2f7c 0a3e
000000f0: 6143 5c3e b640 aebd 1e43 c2be 77b2 043e
00000100: ddc8 633e 746b 2e3e 7e29 94bd 9685 e0bd
00000110: c478 55bd d6cc e33b c299 7a3c 00e5 8cbe
00000120: 0b3d 4fbe 68cf 9e3c bf7d 9b3e 24b7 6d3e
00000130: e58b 0f3e cd90 0abe 8384 a33d 1cdf 1e3e
00000140: f6e7 c13c ee35 d33d f6a5 50be 2ca0 143e
00000150: 631d 00be aa71 f7bd 15d6 f4bd 20a5 f23b
00000160: 3871 663d 4b87 29be c59b 3c3d 39e5 653e
00000170: 8861 fbbd 0d39 4a3b 733b d7bd a955 16be
00000180: a631 9cbe c69e 833d e67e 56be 4435 573e
00000190: c866 3d3e 89c4 053f 0a52 993e cc3b 613d
000001a0: d0f3 cc3d 725f 5ebd d2de 063d 4636 083e
000001b0: 13e9 2c3e a850 153d f257 873e 40ab 8a3f
000001c0: 1ad5 5b3d 8446 0b3e e484 b2be b8c4 b03e
000001d0: 316e 033f 66b5 d83e 17c2 923e 3a64 a3bc
000001e0: 8d30 483e a31b 1a3f 5d0a 103f 7f5c 7bbe
000001f0: 76b8 923e a1d9 653d 224d 8a3c 8830 ab3d
-0.2129987 0.25911847 -0.15652364 0.13621931 0.4591 0.611461 -0.24465655 0.23150295
0.06711869 0.10567618 0.1827074 0.4726333 0.49056768 -0.10663943 0.44023737 0.6758326
-0.02284106 0.44350433 -0.23962939 0.104193114 0.13323075 -0.2995154 0.08935866 -0.002409782
-0.072101615 0.68745285 0.51760554 -0.23731673 0.11063735 0.284267 0.16814211 -0.31666538
-0.3907142 -0.010527517 -0.45278436 -0.06432625 -0.18102476 -0.22011001 -0.09222562 -0.095708355
-0.04701803 0.095433496 0.18324482 -0.1898351 -0.37790293 0.09423159 -0.19651635 -0.5729772
-0.21426116 0.15444715 -0.48853204 0.081369735 -0.24189657 0.02618434 -0.39480013 -0.4346628
-0.5087731 -0.58129805 0.1434212 0.13523935 0.21510078 -0.085084364 -0.3794183 0.12958704
0.22244592 0.17033178 -0.072344765 -0.109629795 -0.052117124 0.0069519086 0.015295448 -0.27518463
-0.2023813 0.019386008 0.30369374 0.23214394 0.1401821 -0.135318 0.07984259 0.15514797
0.023670178 0.10313021 -0.20375809 0.14514226 -0.1251121 -0.120822266 -0.119548954 0.0074049383
0.056260318 -0.16555516 0.04604699 0.22450723 -0.12274462 0.0030856759 -0.10509386 -0.14681114
-0.3050663 0.06426768 -0.20946845 0.21016413 0.18496239 0.52253014 0.29945403 0.054988667
0.10007441 -0.054290242 0.03292734 0.13301954 0.16885786 0.036453873 0.26434284 1.0833511
0.053670026 0.13601118 -0.34867013 0.34525084 0.51340014 0.42325896 0.28663704 -0.019945253
0.1954977 0.6019842 0.56265813 -0.24547003 0.28656358 0.05611575 0.016882483 0.08358866

lstm.bias_hh_l1 f4 [128]
00000000: 6744 60be 15f1 84bc aa9e aebd 8e63 953e
00000010: 3e78 f33e 6dbe 263f 8487 2c3c 6fc5 be3d
00000020: 7b63 b63e 5913 663e b1fe 0d3d b46e 153f
00000030: 2354 a13e 41c0 a3bd 9fd3 b23e 68a2 133f
00000040: 76e3 85bd 49e6 9d3e d30e a1be 7440 343e
00000050: 170f 913e 43cb 11bf 906d e3bd ca3c c4bd
00000060: dbbe 6fbe f3fc 413f 280a 0f3f b5f0 853d
00000070: a7b1 b33e e310 6f3e d6ba a93d 6a9b 82be
00000080: 2192 5abe fdb9 153e 045f f1be 1241 57be
00000090: 8ae9 76be a9be dfbe c7dd aa3d 69bf b0be
000000a0: 3e07 f3bd 2011 013e e361 f03d 30af 46be
000000b0: 113a 87be ea0d a5bd 43a8 68be 34a1 fabe
000000c0: d5f8 34bd 4424 9a3e 9c50 adbe 9eb4 683d
000000d0: 315e 5ebe cca9 e5bd 10a5 34be c15f 3ebe
000000e0: 7558 04bf 7d1f cfbe 24fe ac3d f778 043e
000000f0: 12ae 343d 7639 96be 7176 a9be 863f d3bd
00000100: 9c3e 9c3d 2000 81bd 88b8 32be 7394 193d
00000110: bbc3 723d dab5 bcbd 6af9 59bc 5f8f 3abe
00000120: 9031 e0bd 79f4 e0bc 5d38 393e e0f7 bd3e
00000130: 6bc9 75bc e10f 8a3d bfdc c9bd e4e6 e13d
00000140: 0d72 983c 4af7 613e 8873 27be c888 a7bd
00000150: e4df 07be 3964 5ebe 7acd d1bd 7d79 8dbd
00000160: 78cf df3c 69ab 833d f934 213d 14f4 d3bc
00000170: fd0d 3e3d 6c88 243d 9105 50be 7b44 8d3d
00000180: 0eb4 a1be a470 d23d c1d3 06bd bdd1 ae3d
00000190: 6cc0 853e 60c1 2e3f 8432 ca3d 9bc0 9dbd
000001a0: ca39 d03d d3ae 88be 393c 30bd ee0b a93e
000001b0: 97d9 0fbc c1b3 ae3d e6fc 3f3e 8303 7e3f
000001c0: 0e18 2e3e 96d1 3c3e f66c a1be 24a8 033f
000001d0: 99ad c03e b836 4b3e 1181 ea3d 33b3 54bc
000001e0: 8510 0e3e e510 423f 71d1 033f e72b 22be
000001f0: 776b b03e 78ec 653e bc21 6f3e 611b 553c
-0.21901093 -0.016228238 -0.085263565 0.29177517 0.47552675 0.65134317 0.010530356 0.09315001
0.35622773 0.22468318 0.03466672 0.58372045 0.31509504 -0.07995654 0.3492708 0.5766969
-0.06537525 0.30839756 -0.31456622 0.17602712 0.28331825 -0.5695078 -0.11104882 -0.09581907
-0.2341265 0.75776595 0.5587487 0.06540052 0.35096475 0.23346286 0.08287589 -0.25509197
-0.21344806 0.1462173 -0.47142804 -0.21020916 -0.24112526 -0.4370015 0.08343082 -0.34521034
-0.11866616 0.12604189 0.117374204 -0.19402766 -0.2641149 -0.080592945 -0.22720437 -0.48951113
-0.044182617 0.30105793 -0.33850563 0.056812875 -0.21715619 -0.11214027 -0.17641091 -0.18591215
-0.51697475 -0.4045371 0.08446911 0.1293677 0.04411132 -0.29340714 -0.33098176 -0.103148505
0.07629129 -0.06298852 -0.17453206 0.037495088 0.059268694 -0.09214373 -0.013304094 -0.18218754
-0.10946953 -0.027460324 0.18087907 0.37103176 -0.015001635 0.0674131 -0.09856557 0.11030367
0.018609071 0.2206699 -0.16352665 -0.08180386 -0.13269001 -0.2171792 -0.1024427 -0.06907938
0.027320608 0.06429178 0.03935716 -0.025873221 0.04640006 0.040169165 -0.20314623 0.06897827
-0.31582683 0.10275391 -0.032916788 0.08536098 0.2612337 0.68263817 0.09872916 -0.07702752
0.101672724 -0.2669588 -0.043026183 0.33016914 -0.008779905 0.08530379 0.18748817 0.9922411
0.17001364 0.18439326 -0.31528443 0.5142844 0.37632445 0.19845092 0.11450399 -0.012982178
0.13873489 0.7580703 0.5149146 -0.1583706 0.3445699 0.22453487 0.23352712 0.013007016

fc.weight f4 [1, 32]
00000000: 5ecf 12be 3af7 343f de18 d93d 8a2c db3e
00000010: 5e47 23bf 670d 17bf 3196 2b3f c0eb d73e
00000020: 4672 3abe b2e9 e03e 45f7 083f 893a 1c3f
00000030: 1f6f e4be 8cee e3be b6d1 883e ac1a 413f
00000040: cdbe cebe 2f0f 113f 398e 9d3e 5c29 f7be
00000050: c150 88be 7a83 e33e 556f 21bf c760 1fbf
00000060: 6adc b9be 6685 0ebf f4ff 403f ba33 743e
00000070: 529e c13e 70d2 cdbe b2a8 e3be 2efe 1ebd
-0.14336917 0.7068974 0.10600446 0.42807418 -0.6378077 -0.59004825 0.6702605 0.4217205
-0.18207654 0.43928295 0.53502303 0.6102682 -0.4461603 -0.44517934 0.26722497 0.75431323
-0.40379944 0.56663793 0.3077257 -0.48273742 -0.2662411 0.44436246 -0.63060504 -0.62257046
-0.36300975 -0.556723 0.75390553 0.23847857 0.378161 -0.40199614 -0.44464642 -0.038816623
