notebooks/lstm_model_v4.pt (torch, 161609 bytes, 21 tensors)

lstm.weight_ih_l0 f4 [128, 3]
0.16739471 0.3515982 0.049536176 -0.6305641 -0.24503876 -0.24988776 -0.5985755 -0.15058449
-0.22422059 0.19603154 -0.4891182 0.25954154 -0.12494524 0.588549 -0.2609889 -0.40380034
-0.13902596 -0.05057579 -0.23880838 -0.6621715 -0.011187152 0.017011015 -0.092747934 -0.04605699
0.3931334 -0.5189022 0.2074633 -0.53939176 -0.10907051 0.0953818 -0.25145444 0.50409144
-0.0025702554 -0.21105097 0.6448189 0.087369986 -0.28577703 0.045557104 0.04005461 -0.48177513
-0.6522613 -0.38816166 -1.175847 0.09722751 -0.28795075 -0.06620801 -0.28179255 -0.0029951155
0.27777943 -0.19470735 0.4076761 0.1391419 0.2141588 0.81200194 -0.045669183 0.8263131
0.18615234 0.18391278 -0.08725979 0.18124692 0.03831509 0.5254407 0.2717414 -0.47213954
0.26863718 -0.16497745 -0.068799995 0.5423834 0.037856743 -0.00038510386 0.23215099 0.22534059
0.22010759 -0.20629972 0.36708397 0.009777167 -0.40004423 0.46177194 -0.16815367 0.12515208
0.52246684 -0.30755022 -0.18387844 0.058788545 -0.32635403 0.21725212 -0.28685883 0.21870872
0.5911402 0.41763553 0.19688697 0.16802458 0.7082951 -1.0889931 -0.056124132 -0.0911586
-0.3514791 0.4211712 -0.65360516 0.5679831 -0.39046654 0.9977808 -0.1545757 0.096524686
0.16958532 0.4894357 -0.38223925 -0.16284509 -0.5845306 0.4296779 -0.8234513 0.08812163
0.2628779 0.24406916 1.1017222 0.20713837 -0.18938746 0.7649226 -0.3624469 0.5494352
0.20093806 -0.63908446 -0.014190936 0.82492775 0.029508403 0.7481093 0.15046163 0.39851147
0.7654748 0.04558341 0.19446968 -0.2704686 0.626358 -0.2607887 0.66465497 -0.086206175
-0.02353221 0.34320387 -0.9959907 0.45222172 -0.2767352 0.4972925 -0.269182 0.62298834
0.14335218 -0.13909721 -0.09898646 -0.90270436 -0.16035357 -0.16583532 -0.1281952 0.3063694
-0.3855058 -0.09719457 0.21096665 -0.4375599 0.34049353 0.19603586 0.3700244 -0.11926112
-0.40340295 0.19362532 -0.83487356 0.13929236 -0.6372061 0.47622108 0.3122751 0.83761644
-0.15981546 0.4112659 -0.42343864 -0.07164611 -0.081040174 0.7155369 -0.11401604 -0.09872155
0.31161425 -0.39665636 -0.18185756 -0.15913181 0.39506304 0.25115645 0.6834773 0.33382338
-0.09817965 0.2742693 -0.20406953 0.009988507 -0.56802744 0.16577615 -0.16300516 0.8412208
0.0076398817 -0.3214739 -0.08827554 0.70566833 0.025759822 0.5926329 0.46940574 -0.49829733
0.3112152 -0.81759673 -0.6072955 0.47962362 0.24421571 0.2969253 0.19886942 0.1254102
-0.4115581 0.47002158 -0.57484794 -0.038575612 1.0513679 0.52071744 -0.20310514 1.0017087
-0.12915713 0.2877796 -0.65810716 -0.23443736 -0.28988978 0.7392775 -0.8988075 -0.15769106
-1.3333997 -0.8478663 0.21513744 -0.4492664 -0.049619682 0.07330001 -0.63984877 0.5840629
0.14664128 0.4693963 -0.22188169 0.08673073 0.23650652 0.2743701 -0.11981031 -0.27470806
0.9278646 0.0041739536 -0.18264839 -0.027804334 0.31817597 -0.2333543 -1.0299194 0.03307833
-0.6169861 0.9388706 0.20150802 -0.26186186 1.3969443 -0.19984394 1.1117959 0.7233572
00000000: 8569 2b3e ae04 b43e 72e6 4a3d a66c 21bf
00000010: 71eb 7abe 94e2 7fbe 3e3c 19bf d232 1abe
00000020: 159a 65be 7ebc 483e b36d fabe a1e2 843e
00000030: 4ae3 ffbd 26ab 163f 56a0 85be ebbe cebe
00000040: d25c 0ebe 8f28 4fbd 2f8a 74be 1284 29bf
00000050: 514a 37bc af5a 8b3c a1f2 bdbd 41a6 3cbd
00000060: c848 c93e c6d6 04bf 4271 543e 9415 0abf
00000070: 5c60 dfbd 8857 c33d a3be 80be 230c 013f
00000080: bb71 28bb bf1d 58be da12 253f 09ef b23d
00000090: 5e51 92be 169a 3a3d 4e10 243d 3bab f6be
000000a0: 99fa 26bf 20bd c6be 2882 96bf 371f c73d
000000b0: 486e 93be 1198 87bd 1d47 90be b349 44bb
000000c0: 1b39 8e3e 5d61 47be ecba d03e 377b 0e3e
000000d0: 724c 5b3e 5cdf 4f3f 9c0f 3bbd 4189 533f
000000e0: b89e 3e3e a253 3c3e 43b5 b2bd cb98 393e
000000f0: 49f0 1c3d 4883 063f b021 8b3e 46bc f1be
00000100: d08a 893e d9ef 28be 03e7 8cbd a3d9 0a3f
00000110: ac0f 1b3d c4e7 c9b9 fdb8 6d3e afbf 663e
00000120: e263 613e 3c40 53be 6ef2 bb3e 6930 203c
00000130: 99d2 ccbe 5f6d ec3e 7a30 2cbe de27 003e
00000140: 63c0 053f 3977 9dbe a14a 3cbe 42cc 703d
00000150: e017 a7be 5777 5e3e 29df 92be 2ef5 5f3e
00000160: f754 173f 53d4 d53e bd9c 493e a30e 2c3e
00000170: d452 353f 2064 8bbf 6be2 65bd 5cb1 babd
00000180: 12f5 b3be c0a3 d73e ab52 27bf 5767 113f
00000190: 3beb c7be 906e 7f3f 1849 1ebe bcae c53d
000001a0: c6a7 2d3e 5197 fa3e ddb4 c3be ddc0 26be
000001b0: cca3 15bf befe db3e b4cd 52bf 1d79 b43d
000001c0: ef97 863e 44ed 793e 3c05 8d3f 151c 543e
000001d0: c9ee 41be f8d1 433f a492 b9be c9a7 0c3f
000001e0: b5c2 4d3e 0a9b 23bf 1a81 68bc 772e 533f
000001f0: 9bbb f13c 1784 3f3f 9d12 1a3e b209 cc3e
00000200: 28f6 433f abb5 3a3d 0f23 473e dc7a 8abe
00000210: ff58 203f 1986 85be d426 2a3f dd8c b0bd
00000220: 9fc6 c0bc 6bb8 af3e 3ff9 7ebf 9b89 e73e
00000230: 3cb0 8dbe 1f9d fe3e 39d2 89be 2a7c 1f3f
00000240: eaca 123e 806f 0ebe 6ab9 cabd a217 67bf
00000250: ba33 24be bcd0 29be 9a45 03be 73dc 9c3e
00000260: 0461 c5be f20d c7bd a407 583e da07 e0be
00000270: 2b55 ae3e a0bd 483e d773 bd3e 2d3f f4bd
00000280: d58a cebe b745 463e 46ba 55bf a8a2 0e3e
00000290: f01f 23bf 40d3 f33e 86e2 9f3e 086e 563f
000002a0: aaa6 23be 7291 d23e f3cc d8be 32bb 92bd
000002b0: 64f8 a5bd 6d2d 373f 3e81 e9bd 862e cabd
000002c0: e78b 9f3e 8b16 cbbe de38 3abe 73f3 22be
000002d0: b445 ca3e 9497 803e 5ef8 2e3f e6ea aa3e
000002e0: 6a12 c9bd 076d 8c3e 9af7 50be d6a6 233c
000002f0: 3f6a 11bf 39c1 293e d3ea 26be 3f5a 573f
00000300: f957 fa3b 3a98 a4be cec9 b4bd aea6 343f
00000310: 4306 d33c cab6 173f f355 f03e d420 ffbe
00000320: 9957 9f3e 054e 51bf b877 1bbf 3a91 f53e
00000330: af13 7a3e 9806 983e 6da4 4b3e 886b 003e
00000340: beb7 d2be aba6 f03e 3c29 13bf 7601 1ebd
00000350: 3993 863f bd4d 053f cbfa 4fbe fe37 803f
00000360: c441 04be d957 933e b679 28bf 5910 70be
00000370: 6f6c 94be 4a41 3d3f 4018 66bf c479 21be
00000380: d7ac aabf c40d 59bf fd4c 5c3e 3f06 e6be
00000390: 023e 4bbd 511e 963d 21cd 23bf 2585 153f
000003a0: 2229 163e b654 f03e f434 63be e29f b13d
000003b0: c42e 723e 3d7a 8c3e 1c5f f5bd 89a6 8cbe
000003c0: 8988 6d3f a9c5 883b 2e08 3bbe eac5 e3bc
000003d0: f6e7 a23e 6ef4 6ebe 66d4 83bf 257d 073d
000003e0: cdf2 1dbf d359 703f 1e58 4e3e c212 86be
000003f0: 12cf b23f e4a3 4cbe 544f 8e3f f02d 393f

lstm.weight_hh_l0 f4 [128, 32]
-0.35788593 0.17562513 -0.10265857 -0.1210002 0.63548636 -0.34806034 -0.27365947 0.6169099
-0.45820516 0.7067692 -0.13198794 0.079094805 -0.49844414 0.07912829 0.41512042 0.12751044
-0.095628306 0.7849753 -0.20039313 0.30620292 0.08616773 0.39734054 -0.68925464 0.06321312
-0.41260856 0.22309078 -0.13248345 -0.14449446 -0.18608834 0.3253147 0.34570873 0.25539297
0.42837715 -0.29444987 -0.18603398 0.13114136 -0.29232913 0.20908509 0.44072425 -0.47124663
-0.2845552 0.15045789 -0.2943131 -0.24871862 -0.03374339 0.014193352 -0.03497845 -0.003059399
0.13964283 -0.24885128 -0.41589496 -0.00063158537 -0.033159886 -0.12409492 0.28381717 0.33535576
0.15463693 0.32181567 -0.46169662 0.22510642 0.24815856 -0.080637656 -0.13599995 -0.045275927
-0.268819 0.0071372758 -0.5026205 0.054267265 -0.23367502 -0.29993677 0.61499655 0.18283027
-0.43079403 -1.1712359 -0.07909033 -0.028516557 -0.11627484 0.25099233 -0.024026057 0.44925338
0.21330108 -0.48268402 -0.008377511 -0.17505191 0.2894471 0.08922262 0.10820781 0.312485
0.2801021 -0.5376465 -0.34223068 -0.36532694 0.112008825 0.5717862 0.018957129 -0.53081316
0.40238702 0.09042497 0.15864395 0.1311863 -0.0772827 0.2154557 -0.29575753 -0.093098424
-0.2822168 0.075155415 -0.23413461 -0.68015796 -0.5024569 0.14331196 0.12095991 0.021496085
-0.19608596 -0.52690965 -0.48999646 0.16107027 0.4524396 0.33572432 0.016049558 -0.0029367146
-0.14602667 -0.004548035 -0.11465983 0.011731202 -0.28543544 -0.2014812 -0.6425699 0.335017
0.102212705 0.3787723 -0.00067071646 -0.54381865 0.023894232 -0.23884644 0.025119366 0.030739123
0.49615625 -0.17069536 0.027627036 -0.04534431 -0.10523896 0.35154653 -0.20940217 0.03841367
0.23693953 0.07333338 0.22118142 0.37687013 -0.11674432 -0.0285201 -0.118328795 0.031090405
0.15612184 -0.56520146 0.5296969 -0.117347285 0.43352565 0.2182183 0.50327784 -0.46229815
0.18901752 -0.377412 -0.049294505 -0.12590264 -0.3744066 -0.30282122 0.46374854 -0.9480846
0.29537594 -0.6195171 0.34823996 -0.014276337 0.46948 -0.12513511 -0.3104133 0.026652753
-0.21506672 -0.93072605 0.28381142 -0.6288603 -0.5918446 0.21108788 0.5474734 -0.24441673
0.019045241 -0.31536707 0.011812845 -0.6239055 0.22138785 -0.12784645 0.39759487 -0.42886955
0.4232103 -0.5921402 0.60996884 0.34901118 -0.23520099 0.20713866 -0.6566105 0.13871904
-0.1342176 0.52168065 0.6390849 -0.5497465 -0.26367906 0.0032308358 -0.28623074 0.055137143
0.03319834 -0.29046956 0.24223094 0.14267343 -0.047284555 -0.43246707 0.19462027 -0.31499222
0.9692756 0.4445048 -0.38180432 0.42872506 -0.4446706 -0.1213497 0.77027225 0.15227303
0.32150048 -0.073770314 0.1176937 0.20909631 -0.5922903 -0.24256589 0.057319928 0.33188984
0.041904133 -0.06633445 -0.082030304 -0.4904174 -0.5202777 -0.07320634 -0.49992675 0.14409019
0.5394905 -0.13593277 -0.2602149 -0.016045602 0.4897385 -0.3153902 0.3254228 0.46317646
0.20231411 0.119957425 0.07796523 0.1035726 0.44748765 0.33360878 0.42725918 -0.20281948
00000000: d33c b7be 13d7 333e a83e d2bd f4ce f7bd
00000010: 3caf 223f f734 b2be 181d 8cbe cfed 1d3f
00000020: de99 eabe d4ee 343f d927 07be 75fc a13d
00000030: 1234 ffbe 030e a23d aa8a d43e 1992 023e
00000040: c6d8 c3bd 24f4 483f db33 4dbe a1c6 9c3e
00000050: b578 b03d 3870 cb3e fe72 30bf e175 813d
00000060: 6e41 d3be e971 643e bea9 07be 5bf6 13be
00000070: f18d 3ebe a68f a63e bc00 b13e dec2 823e
00000080: 4054 db3e 22c2 96be b17f 3ebe ec49 063e
00000090: 2aac 95be 671a 563e 9ca6 e13e 3d47 f1be
000000a0: 38b1 91be a211 1a3e 35b0 96be 18b0 7ebe
000000b0: 8236 0abd 3c8b 683c 9045 0fbd 3380 48bb
000000c0: 88fe 0e3e dfd2 7ebe 2ff0 d4be fa90 25ba
000000d0: a9d2 07bd 7a25 febd 7c50 913e c0b3 ab3e
000000e0: 2559 1e3e 06c5 a43e 8063 ecbe 4c82 663e
000000f0: 471d 7e3e 5b25 a5bd 9243 0bbe 4073 39bd
00000100: a5a2 89be cfdf e93b bdab 00bf 5a47 5e3d
00000110: 8148 6fbe 5091 99be 6a70 1d3f dc37 3b3e
00000120: 0991 dcbe 0feb 95bf 1cfa a1bd 8e9b e9bc
00000130: 8121 eebd 1182 803e 4bd2 c4bc 8a04 e63e
00000140: 996b 5a3e 5c22 f7be d441 09bc cf40 33be
00000150: 6932 943e 59ba b63d 0e9c dd3d 09fe 9f3e
00000160: 8b69 8f3e 33a3 09bf dc38 afbe 220c bbbe
00000170: e264 e53d 9560 123f fb4b 9b3c 5fe3 07bf
00000180: ac05 ce3e ba30 b93d 8f73 223e b455 063e
00000190: 6446 9ebd 6ba0 5c3e 886d 97be 63aa bebd
000001a0: b87e 90be 15eb 993d fcc0 6fbe d51e 2ebf
000001b0: 04a1 00bf 5fc0 123e d4b9 f73d 8f18 b03c
000001c0: c2ca 48be 8de3 06bf d1e0 fabe 9bef 243e
000001d0: 2aa6 e73e 0fe4 ab3e 5d7a 833c e575 40bb
000001e0: 0488 15be af07 95bb c6d2 eabd 3a34 403c
000001f0: 9824 92be 1651 4ebe 767f 24bf 5987 ab3e
00000200: e554 d13d 71ee c13e 05d3 2fba b337 0bbf
00000210: d6bd c33c 2994 74be 21c7 cd3c 9dd0 fb3c
00000220: 3108 fe3e c4ca 2ebe 1852 e23c f5ba 39bd
00000230: 8687 d7bd e8fd b33e 866d 56be a757 1d3d
00000240: 47a0 723e d02f 963d 627d 623e 1ff5 c03e
00000250: a517 efbd fca2 e9bc 5e56 f2bd 4eb1 fe3c
00000260: 67de 1f3e 0bb1 10bf 379a 073f c653 f0bd
00000270: 13f7 dd3e 9e74 5f3e d1d6 003f 58b2 ecbe
00000280: cf8d 413e 253c c1be 09e9 49bd 9fec 00be
00000290: 39b2 bfbe 620b 9bbe 7370 ed3e acb5 72bf
000002a0: 843b 973e ac98 1ebf 824c b23e 4ce7 69bc
000002b0: af5f f03e 6b23 00be 7eee 9ebe e056 da3c
000002c0: 733a 5cbe 1044 6ebf bb4f 913e fdfc 20bf
000002d0: 2183 17bf 6c27 583e 3727 0c3f 6148 7abe
000002e0: c404 9c3c cb77 a1be aa8a 413c 45b8 1fbf
000002f0: 7fb3 623e 2eea 02be 8e91 cb3e ca94 dbbe
00000300: 05af d83e 8096 17bf eb26 1c3f 98b1 b23e
00000310: 87d8 70be 281c 543e a017 28bf 5d0c 0e3e
00000320: 5770 09be dd8c 053f 119b 233f 30bc 0cbf
00000330: f100 87be 6ebc 533b d68c 92be 7cd7 613d
00000340: fcfa 073d 6db8 94be 630b 783e fc18 123e
00000350: 73ad 41bd 536c ddbe 894a 473e a946 a1be
00000360: 7222 783f 2296 e33e db7b c3be da81 db3e
00000370: ddab e3be 3186 f8bd 9030 453f 76ed 1b3e
00000380: b69b a43e e414 97bd 6509 f13d 581d 563e
00000390: 56a0 17bf 3163 78be 4dc8 6a3d 77ed a93e
000003a0: aba3 2b3d 5bda 87bd 81ff a7bd fd17 fbbe
000003b0: eb30 05bf 35ed 95bd 66f6 ffbe 618c 133e
000003c0: 0d1c 0a3f f631 0bbe e33a 85be 1172 83bc
000003d0: 01bf fa3e d37a a1be d19d a63e 7725 ed3e
000003e0: 6e2b 4f3e 3dac f53d 3cac 9f3d df1d d43d
000003f0: 1a1d e53e c5ce aa3e b7c1 da3e e9af 4fbe

lstm.bias_ih_l0 f4 [128]
0.013045462 -0.14681017 -0.63138986 -0.03351866 0.15379104 -0.5020586 0.24029619 0.26446727
-0.2560741 0.13060549 0.35473314 0.000333841 -0.34296042 -0.027540844 -0.26662457 -0.35458082
-0.19282576 0.14683756 -0.08765494 -0.09525183 0.1898916 -0.08551931 0.053013306 -0.19994572
-0.24088597 -0.2572422 0.2914607 -0.078974485 0.11120501 -0.20794088 -0.28237593 -0.21203609
0.26716533 -0.048587613 -0.11210879 0.3706371 0.2893406 -0.21632202 -0.083124995 -0.33204502
-0.17067079 -0.11541144 0.180664 0.45258585 -0.42074054 -0.23489536 0.23300439 -0.05237911
-0.21041828 0.13831946 0.2880619 -0.06158473 0.046305276 -0.11311471 0.088769734 0.23803185
0.021006895 -0.23801172 0.19138023 -0.10516413 0.51478255 -0.047355447 -0.11564275 -0.08124305
0.14370328 0.28943902 -0.107778475 0.029740494 -0.29805332 0.15775844 -0.28743762 0.22680305
0.16770932 0.07622605 -0.1176482 -0.1759027 -0.25076437 0.2124366 0.111615606 -0.054145407
-0.14020872 -0.10873369 -0.24760264 0.081857614 0.19958676 0.27831623 0.16455397 0.059534736
-0.15542172 -0.12771 0.23750764 0.12877578 -0.03314451 -0.069173574 -0.23739333 -0.039790664
-0.054608207 -0.054989684 -0.3690811 -0.048188973 -0.5597676 -0.30263883 0.25341585 0.07229252
-0.10563753 0.082571715 0.11685663 -0.09458194 -0.081741594 -0.17166564 -0.12500612 -0.35696664
-0.19749674 -0.109889664 0.055878635 -0.14024559 0.0074279862 -0.0009946796 -0.42544624 0.111305214
-0.0077532176 0.025418352 0.03691755 -0.27307975 -0.02279093 0.12965195 0.14095055 -0.1404777
00000000: a2bc 553c 6855 16be c4a2 21bf dd4a 09bd
00000010: 667b 1d3e ea86 00bf 3410 763e 4168 873e
00000020: 251c 83be 72bd 053e 959f b53e 6107 af39
00000030: 8298 afbe 569d e1bc 0483 88be 9e8b b5be
00000040: 1e74 45be 965c 163e 6f84 b3bd 6413 c3bd
00000050: f272 423e bf24 afbd 7b24 593d 92be 4cbe
00000060: d0aa 76be 40b5 83be 563a 953e 60bd a1bd
00000070: 74bf e33d 74ee 54be 9493 90be fd1f 59be
00000080: e5c9 883e ce03 47bd 4b99 e5bd 25c4 bd3e
00000090: 7324 943e 8583 5dbe 703d aabd ce01 aabe
000000a0: 53c4 2ebe d55c ecbd fcff 383e 55b9 e73e
000000b0: 4e6b d7be 6988 70be b498 6e3e 7a8b 56bd
000000c0: e477 57be 9ea3 0d3e d97c 933e 4540 7cbd
000000d0: 9aaa 3d3d afa8 e7bd e8cc b53d 9fbe 733e
000000e0: a716 ac3c 58b9 73be 2ef9 433e 4b60 d7bd
000000f0: cac8 033f c9f7 41bd 1bd6 ecbd c262 a6bd
00000100: f426 133e 5a31 943e f6ba dcbd 56a2 f33c
00000110: 729a 98be 6e8b 213e 062b 93be 0f3f 683e
00000120: febb 2b3e 671c 9c3d 8af1 f0bd d61f 34be
00000130: 3064 80be fb88 593e b996 e43d 93c7 5dbd
00000140: e092 0fbe c5af debd 8c8b 7dbe f7a4 a73d
00000150: 7960 4c3e 777f 8e3e d680 283e b2da 733d
00000160: df26 1fbe 69c6 02be 3435 733e ccdd 033e
00000170: 8ac2 07bd e0aa 8dbd 3d17 73be 89fb 22bd
00000180: dbac 5fbd dd3c 61bd 33f8 bcbe cd61 45bd
00000190: ee4c 0fbf 7af3 9abe b9bf 813e 1a0e 943d
000001a0: 7d58 d8bd 5c1b a93d 8752 ef3d 2db4 c1bd
000001b0: 2368 a7bd 1ec9 2fbe 9b01 00be 55c4 b6be
000001c0: 963c 4abe d50d e1bd ffe0 643d 8a9c 0fbe
000001d0: 7766 f33b e95f 82ba 17d4 d9be fdf3 e33d
000001e0: b40e febb 263a d03c db36 173d 1cd1 8bbe
000001f0: 0bb4 babc 7bc3 043e 5755 103e 63d9 0fbe

lstm.bias_hh_l0 f4 [128]
0.027775282 -0.15966646 -0.32776868 -0.252878 -0.0918324 -0.3937836 0.048694283 0.2818189
-0.22179611 0.27150628 0.12700777 0.16144669 -0.04243446 0.16195688 -0.22381906 -0.3030896
-0.046463605 0.0047057057 -0.20156297 -0.22931987 0.14210132 -0.08079808 0.08269685 0.07920322
-0.3659289 -0.062369958 -0.031345468 -0.1642077 0.18687348 -0.026744355 -0.15726008 -0.17213391
0.22882928 -0.16875742 -0.045604564 0.33517426 0.18557799 -0.26739502 0.25000706 -0.38667703
-0.18317549 -0.24971879 0.2263766 0.20552443 -0.45806426 -0.18737452 0.18474801 0.0085753845
-0.43919137 0.2729466 0.21401198 -0.09125552 -0.0151476525 0.0110045895 0.41354245 -0.010627417
0.06236517 -0.2189821 -0.07637266 -0.20417863 0.62752223 0.015271304 0.034098696 0.016623983
0.4030706 0.16719142 0.117015615 -0.20289896 -0.30709344 0.28517184 -0.13839588 0.17476703
0.16280445 -0.013408184 -0.048690915 -0.30017066 0.003637989 0.09176749 -0.15546243 -0.03717057
0.047262628 -0.024554051 -0.12263889 0.18850616 0.055608615 0.14759098 0.03466226 0.13677537
-0.16029586 -0.06113266 0.18957877 0.0458305 -0.2325021 0.027017815 -0.18060581 0.03677449
0.062035736 -0.0040297895 -0.28659698 0.04647458 -0.61216563 -0.13871162 0.47353908 -0.024042225
0.121437825 -0.059843615 0.20118222 0.20364873 -0.22657768 0.09866816 0.07588626 -0.37192336
-0.09703868 -0.15123695 -0.07262141 0.14581576 -0.0265326 0.047630604 -0.3612572 -0.093952775
-0.028808521 -0.2562213 0.11910362 0.057110917 -0.13789773 0.019421466 0.0064801653 -0.2145386
00000000: fd88 e33c 9b7f 23be 4cd1 a7be 3a79 81be
00000010: a012 bcbd 019e c9be a873 473d 914a 903e
00000020: 851e 63be df02 8b3e 530e 023e 4852 253e
00000030: c2cf 2dbd 06d8 253e d330 65be 8f2e 9bbe
00000040: 9f50 3ebd 5232 9a3b 8666 4ebe d4d2 6abe
00000050: 0283 113e 7779 a5bd f75c a93d 4c35 a23d
00000060: 085b bbbe a477 7fbd 1b64 00bd 1026 28be
00000070: c35b 3f3e fa16 dbbc c908 21be df43 30be
00000080: 3952 6a3e bfce 2cbe dacb 3abd f69b ab3e
00000090: 2808 3e3e 00e8 88be ed00 803e 88fa c5be
000000a0: 5b92 3bbe 48b6 7fbe 44cf 673e ff74 523e
000000b0: 6687 eabe 1bdf 3fbe 952e 3d3e c57f 0c3c
000000c0: b1dd e0be a8bf 8b3e f525 5b3e 2de4 babd
000000d0: dc2d 78bc 984c 343c d6bb d33e 9e1e 2ebc
000000e0: 9f72 7f3d d83c 60be 4569 9cbd 3414 51be
000000f0: 4ca5 203f 7e34 7a3c 13ab 0b3d 052f 883c
00000100: 455f ce3e 3a34 2b3e e2a5 ef3d bfc4 4fbe
00000110: 5a3b 9dbe 0b02 923e a6b7 0dbe 21f6 323e
00000120: 36b6 263e 00ae 5bbc 2070 47bd f8af 99be
00000130: 546b 6e3b 98f0 bb3d 8b31 1fbe 2b40 18bd
00000140: 7596 413d 9425 c9bc 192a fbbd c207 413e
00000150: dcc5 633d 1722 173e 04fa 0d3d d80e 0c3e
00000160: 9924 24be 3d66 7abd f020 423e c3b8 3b3d
00000170: 0815 6ebe 7754 dd3c bbf0 38be d9a0 163d
00000180: 2f19 7e3d 530c 84bb d7bc 92be 215c 3e3d
00000190: e3b6 1cbf 6b0a 0ebe b773 f23e 33f4 c4bc
000001a0: 65b4 f83d 941e 75bd b602 4e3e 4b89 503e
000001b0: fb03 68be 8812 ca3d 416a 9b3d bd6c bebe
000001c0: 37bc c6bd dcdd 1abe 89ba 94bd ba50 153e
000001d0: e55a d9bc 4f18 433d b4f6 b8be 506a c0bd
000001e0: d9ff ebbc 702f 83be 99ec f33d 23ed 693d
000001f0: 1035 0dbe c419 9f3c 9157 d43b 02b0 5bbe

lstm.weight_ih_l1 f4 [128, 32]
-0.059281234 0.56724226 0.35025164 -0.19391835 0.55598015 0.25475612 0.378265 0.095081955
0.19219044 -0.05820413 0.32220888 -0.1950887 -0.42193347 1.178652 0.5115376 0.34897378
0.28519166 0.22437567 -0.16239595 0.14664969 -0.51141053 -0.056153428 -0.46387994 0.115286365
0.061162647 0.013919256 0.14197442 -0.06181291 0.51611793 -0.09729346 -0.18732038 -0.73856837
-0.08881932 -0.6871261 -0.62427604 -0.81238425 -0.023098605 -0.14202389 -0.07921508 -0.4439011
0.21811731 0.36077607 0.36352885 0.14540991 0.22836852 -0.278256 0.283816 -0.10108155
-0.1945926 0.04892574 -0.19477625 0.24598725 -0.28836918 -0.38759115 0.012093783 -0.90727997
-0.023301257 0.140581 -0.14801899 0.17503668 -0.16391128 -0.7496355 0.15128653 0.16048196
0.11596057 0.69438565 0.6907627 -0.3506854 0.25558248 0.9112926 0.082528226 0.81880087
0.28605896 0.014785442 -0.7084712 -0.6679806 -0.676191 1.0591527 0.5027567 0.8537931
0.982252 -0.3909844 -0.4144449 0.14972582 0.21673268 0.25305632 -0.2371268 0.87535673
1.4637747 -0.24549513 0.08746258 -0.14834145 0.3172678 0.7085779 1.0971142 -0.5646008
-0.5401585 0.40799317 -0.123319775 -0.22845505 0.049004577 -0.15911846 -0.0045687635 -0.05069005
-0.0592391 -0.00060124544 0.2618768 0.92222136 0.11316311 0.6858443 0.014668568 0.1606699
-0.56273454 0.38609537 0.23678777 -0.24195579 -0.58455735 -0.08774174 -0.039396394 -0.45336917
-0.71004635 -0.27613735 0.13631985 0.23670796 0.033964045 -0.6549496 -0.5539383 -0.5937463
0.2686556 -0.34198335 -0.2907242 -0.02185514 -0.76771665 0.100953475 0.39657447 0.0007594359
0.10172466 -0.9023591 -0.9466655 -0.66193473 0.4657125 -0.6672659 -0.9035562 0.15853271
0.54669255 -0.6872944 -0.14813359 -0.13914447 0.67609084 0.4955647 0.7409628 0.28835186
0.66601235 -0.44900146 0.24048202 -0.7124803 0.3595195 0.49662495 -0.051254738 -0.59654576
0.8667482 0.04658347 0.75309503 -0.19609034 -0.3467648 0.5189938 0.20828503 -0.4841923
0.24931844 -1.0199463 -0.68532056 -0.4855222 -0.420604 0.45607483 -0.04705267 0.448303
0.48751467 -0.5261991 -0.2572447 -0.14251181 0.78378195 0.4686816 -0.08597505 0.6632716
1.3039244 -0.7358029 0.79699355 -0.06252487 0.0126544405 0.9975189 0.44565412 -0.21070974
-0.25717527 0.037871215 0.34588784 -0.15090504 -0.03631717 -0.11903104 -0.3812322 0.37091085
0.17210944 -0.22269718 -0.025566002 -0.18956031 0.2007014 -0.31767154 -0.34799433 -0.43565473
1.0064018 -0.28186628 -0.21983325 0.3461006 0.43323982 -0.0725149 -0.099597275 0.078897186
0.7904779 -0.4056796 0.309818 -0.54817796 0.25576413 0.55495137 0.855645 0.13633217
0.3496136 -1.1407706 -0.7680401 0.18505666 -0.6271324 -0.42458922 0.78732777 -0.79665333
-0.38923922 -0.38310143 0.6982132 0.24127898 0.75762415 -1.0071223 -0.5337945 -0.047305748
-0.008055812 -0.30899423 0.6037376 -0.2896747 -0.59158015 -0.83249927 0.32212225 -1.2997175
0.43542898 -0.15154953 -0.38915932 0.0887566 0.25524983 -0.2272232 -0.19375496 0.4102247
00000000: e1d0 72bd ca36 113f 2f54 b33e 8892 46be
00000010: b754 0e3f 656f 823e f3ab c13e 54ba c23d
00000020: 92cd 443e 7467 6ebd 90f8 a43e 55c5 47be
00000030: aa07 d8be 12de 963f 21f4 023f b1ac b23e
00000040: a404 923e bcc2 653e 204b 26be 562b 163e
00000050: cdeb 02bf 2301 66bd ac81 edbe 421b ec3d
00000060: af85 7a3d 970d 643c be61 113e 892f 7dbd
00000070: 4e20 043f cb41 c7bd ead0 3fbe d112 3dbf
00000080: e7e6 b5bd 7fe7 2fbf 8ed0 1fbf 6af8 4fbf
00000090: 4939 bdbc b66e 11be 843b a2bd 0147 e3be
000000a0: 255a 5f3e a4b7 b83e 7420 ba3e 56e6 143e
000000b0: 70d9 693e 9277 8ebe 5550 913e d803 cfbd
000000c0: 4843 47be 5b66 483d 6d73 47be 15e4 7b3e
000000d0: 20a5 93be 5972 c6be 0125 463c 8043 68bf
000000e0: 47e2 bebc 77f4 0f3e 4a92 17be d13c 333e
000000f0: 5cd8 27be 1de8 3fbf dbea 1a3e 6255 243e
00000100: bc7c ed3d 42c3 313f d3d5 303f 098d b3be
00000110: b5db 823e 794a 693f 8f04 a93d ef9c 513f
00000120: 5276 923e a33e 723c 5e5e 35bf c700 2bbf
00000130: da1a 2dbf 5192 873f aab4 003f 2f92 5a3f
00000140: de74 7b3f 1b2f c8be 1f32 d4be ba51 193e
00000150: 2cef 5d3e 9990 813e 5ed1 72be 6117 603f
00000160: f85c bb3f 1363 7bbe 951f b33d d2e6 17be
00000170: ed70 a23e 5c65 353f 3d6e 8c3f ae89 10bf
00000180: d447 0abf 7be4 d03e 148f fcbd 1ff0 69be
00000190: 06b9 483d f3ef 22be 91b5 95bb 5fa0 4fbd
000001a0: b3a4 72bd e69c 1dba b714 863e b316 6c3f
000001b0: 10c2 e73d 7e93 2f3f 6f54 703c a686 243e
000001c0: 5f0f 10bf 4bae c53e 7e78 723e 42c3 77be
000001d0: 8da5 15bf f1b1 b3bd 1d5e 21bd 0120 e8be
000001e0: 99c5 35bf e061 8dbe 6e97 0b3e 9263 723e
000001f0: e21d 0b3d c7aa 27bf e7ce 0dbf c2ff 17bf
00000200: 3a8d 893e 7118 afbe cdd9 94be 8d09 b3bc
00000210: 1489 44bf b2c0 ce3d cf0b cb3e e114 473a
00000220: 0555 d03d 0201 67bf ac58 72bf 8e74 29bf
00000230: de71 ee3e f0d1 2abf 764f 67bf 6656 223e
00000240: 0bf4 0b3f 87f2 2fbf 55b0 17be e37b 0ebe
00000250: 4a14 2d3f a8ba fd3e bdaf 3d3f dba2 933e
00000260: c97f 2a3f 85e3 e5be eb40 763e 1c65 36bf
00000270: f112 b83e a045 fe3e 7df0 51bd 39b7 18bf
00000280: 36e3 5d3f 4fce 3e3d d6ca 403f e8cb 48be
00000290: 288b b1be c7dc 043f ac48 553e 0ee8 f7be
000002a0: 554d 7f3e 9a8d 82bf 2b71 2fbf 5e96 f8be
000002b0: 6859 d7be a482 e93e 4dba 40bd f987 e53e
000002c0: 869b f93e fcb4 06bf 94b5 83be 9eee 11be
000002d0: efa5 483f 09f7 ef3e b013 b0bd 2bcc 293f
000002e0: ffe6 a63f 945d 3cbf c507 4c3f 0a0d 80bd
000002f0: 9254 4f3c 665d 7f3f c72c e43e 4bc4 57be
00000300: 7aac 83be d91e 1b3d 3618 b13e da86 1abe
00000310: 50c1 14bd 8cc6 f3bd de30 c3be 07e8 bd3e
00000320: 753d 303e bb0a 64be cb6f d1bc 191c 42be
00000330: ab84 4d3e d8a5 a2be 502c b2be 230e dfbe
00000340: c6d1 803f c750 90be f81b 61be 1934 b13e
00000350: 9cd1 dd3e b182 94bd a8f9 cbbd d994 a13d
00000360: c25c 4a3f 3db5 cfbe 77a0 9e3e 6455 0cbf
00000370: 84f3 823e 4b11 0e3f 8d0b 5b3f a99a 0b3e
00000380: 8e00 b33e c504 92bf 479e 44bf 7e7f 3d3e
00000390: c08b 20bf c263 d9be 508e 493f 79f1 4bbf
000003a0: 5d4a c7be df25 c4be 1abe 323f d611 773e
000003b0: a8f3 413f 62e9 80bf c2a6 08bf acc3 41bd
000003c0: 86fc 03bc 7e34 9ebe 8c8e 1a3f 3e50 94be
000003d0: cc71 17bf ac1e 55bf 35ed a43e 255d a6bf
000003e0: 8cf0 de3e cd2f 1bbe e43f c7be 05c6 b53d
000003f0: 1bb0 823e 33ad 68be b367 46be f908 d23e

lstm.weight_hh_l1 f4 [128, 32]
0.020596778 0.26445407 0.6016024 0.31092378 0.45735908 -0.44492918 -0.13282837 -0.32042074
-0.13022247 -0.019892188 0.2710471 -0.12702 0.1767522 0.008578863 -0.11109382 0.40538612
-0.06781993 0.77654886 -0.37016517 0.3200459 -0.4143527 -0.06530076 0.061277613 -0.19982427
-0.09914132 -0.02893254 0.26652336 -0.26402083 -0.11392043 0.052300178 -0.11936185 -0.08963189
-0.37012237 -0.51753 0.3057276 -0.41660246 0.18713197 -0.03939503 0.21367957 -0.22867996
0.12929347 -0.11920949 -0.21889088 -0.008989966 0.39816388 -0.05834233 -0.059117805 -0.58088124
0.37772954 0.35374585 -0.09502825 -0.05393515 0.22303079 0.71691006 0.6226511 0.09424859
0.32101396 -0.45619872 -0.103030436 0.10797964 -0.24274608 0.24882086 -0.0783957 0.49467242
0.27626535 0.32627735 -0.14641142 0.15559007 0.16774254 -0.062974304 -0.5137073 -0.288654
0.02322475 -1.0112822 -0.12613626 0.27866712 -0.53622824 1.0262536 -0.41346535 0.085316196
-0.41577375 0.13171172 -0.83562636 0.17643201 -0.2731833 -0.5029094 -0.27844334 0.4688781
-0.3209048 0.07574451 0.012309238 -0.020613357 0.2200181 -0.2761516 -0.2838772 -0.1255986
0.02895367 -0.08633719 -0.01688674 -0.33748695 -0.023725573 0.25255483 0.0765308 -0.015556917
-0.28553092 -0.2060163 0.58979255 -0.18301338 -0.43237633 -0.06984822 0.29218757 0.12121948
-0.056546763 0.4038275 -0.153893 0.31046227 -0.18943979 0.09676251 0.05669768 0.026002293
0.06079799 -0.21153891 0.0361614 -0.39088574 -0.44337004 -0.40182325 -0.3399314 -0.07091102
0.48190227 0.23928463 -0.85063887 0.5112607 -0.77552724 0.984824 -0.1669607 -0.94756454
-0.39808577 -0.89182645 0.5362609 0.36640704 -0.5187394 0.54206765 -0.57344455 0.2948335
-0.17547014 0.3007985 -0.8718879 -0.75998664 0.010581069 -0.23100644 -0.2268092 0.21178733
0.041599426 0.25452256 0.37640503 -0.60939497 0.53635097 0.3714088 0.26903886 -0.072284155
0.040830586 0.272873 -0.2898882 0.14061047 -0.39968795 0.23017062 -0.33686036 -0.13461336
-0.18648756 -0.43095693 0.67908025 -0.37683037 -0.31126183 0.8212378 -0.17470028 0.24643902
-0.010254511 0.19012627 0.025117584 0.13968752 -0.048761733 -0.41128764 -0.21635857 0.42777318
-0.2924825 0.40601087 0.032562938 0.18009894 -0.10919774 0.2636882 0.16210903 0.059043005
0.39251277 0.011567599 -0.78617233 0.668453 1.4608771 -0.8575603 0.80810857 0.26695552
-0.20320098 0.19385299 -0.35575402 0.050011553 0.8185455 0.1327844 0.3029084 -0.08004485
0.33194584 0.41813102 -0.0019522434 -0.47478318 -0.5012413 0.23547025 -0.10971227 -0.24351631
0.05264173 0.11115339 0.17214394 0.23107044 0.5962215 -0.13212328 0.40741187 0.4492356
0.27483785 0.34500405 -0.2594528 0.6482519 -0.09839392 0.05682719 -0.35588455 -0.37297767
-0.34349495 -0.292874 0.20515126 -0.16032824 -0.22518371 0.2648147 -0.26883954 -0.0627297
-0.29061526 -0.0650651 -0.4231453 0.15864396 -0.3444635 -0.020415895 -0.40502578 -0.13847578
-0.356685 0.6663768 0.36139235 0.19566573 -0.33386603 -0.63436306 0.06739049 -0.10842267
00000000: 93ba a83c 8666 873e 9d02 1a3f 6731 9f3e
00000010: f82a ea3e c2cd e3be 2904 08be 300e a4be
00000020: 0a59 05be f1f4 a2bc afc6 8a3e 8811 02be
00000030: 87fe 343e 5c8e 0c3c 2885 e3bd c58e cf3e
00000040: 2de5 8abd e8cb 463f 4a86 bdbe 0edd a33e
00000050: 0926 d4be 68bc 85bd 3cfe 7a3d bc9e 4cbe
00000060: 9b0a cbbd ef03 edbc c075 883e bd2d 87be
00000070: 1d4f e9bd b638 563d fc73 f4bd ed90 b7bd
00000080: ae80 bdbe d97c 04bf 5488 9c3e eb4c d5be
00000090: 869f 3f3e af5c 21bd d1ce 5a3e 142b 6abe
000000a0: 8265 043e 1b24 f4bd ee24 60be a64a 13bc
000000b0: 23dc cb3e 5ef8 6ebd 8325 72bd a2b4 14bf
000000c0: c465 c13e 2d1e b53e 2c9e c2bd 1beb 5cbd
000000d0: 2f62 643e 6b87 373f 1066 1f3f 6805 c13d
000000e0: f15b a43e e192 e9be 9f01 d3bd 6e24 dd3d
000000f0: 6e92 78be e5ca 7e3e ed8d a0bd b445 fd3e
00000100: a772 8d3e d30d a73e e0ec 15be 0153 1f3e
00000110: b3c4 2b3e acf8 80bd 5282 03bf 75ca 93be
00000120: d541 be3c b271 81bf dd29 01be 75ad 8e3e
00000130: 4146 09bf 475c 833f bbb1 d3be 42ba ae3d
00000140: 4ce0 d4be 70df 063e 9ceb 55bf 98aa 343e
00000150: aede 8bbe acbe 00bf 2090 8ebe ca10 f03e
00000160: a24d a4be f01f 9b3d b0ac 493c 58dd a8bc
00000170: 6d4c 613e be63 8dbe 5a58 91be eb9c 00be
00000180: 3f30 ed3c 8dd1 b0bd 1056 8abc 17cb acbe
00000190: 225c c2bc de4e 813e 2ebc 9c3d 70e2 7ebc
000001a0: 1c31 92be f0f5 52be a5fc 163f dc67 3bbe
000001b0: 6e60 ddbe 950c 8fbd 9c99 953e eb41 f83d
000001c0: 949d 67bd 7ac2 ce3e 2096 1dbe e9f4 9e3e
000001d0: 81fc 41be 6c2b c63d d43b 683d c302 d53c
000001e0: 5007 793d a89d 58be fa1d 143d 2d22 c8be
000001f0: 6601 e3be c7bb cdbe 7d0b aebe cc39 91bd
00000200: e5bb f63e 0807 753e 78c3 59bf fbe1 023f
00000210: f488 46bf 6d1d 7c3f bff7 2abe 9793 72bf
00000220: e6d1 cbbe bd4e 64bf 6548 093f b499 bb3e
00000230: 1bcc 04bf f2c4 0a3f 43cd 12bf 6bf4 963e
00000240: 72ae 33be 4302 9a3e 0c34 5fbf 7c8e 42bf
00000250: 385c 2d3c f48c 6cbe ac40 68be c7de 583e
00000260: 2964 2a3d c850 823e 29b8 c03e 4f01 1cbf
00000270: 4c4e 093f 4b29 be3e 76bf 893e b709 94bd
00000280: f93d 273d 03b6 8b3e 3a6c 94be 31fc 0f3e
00000290: e6a3 ccbe d9b1 6b3e f678 acbe 16d8 09be
000002a0: 98f6 3ebe 63a6 dcbe 34d8 2d3f e9ef c0be
000002b0: b65d 9fbe a43c 523f a1e4 32be 835a 7c3e
000002c0: 8902 28bc 76b0 423e 64c3 cd3c 3f0a 0f3e
000002d0: 62ba 47bd 4b94 d2be 1a8d 5dbe 1605 db3e
000002e0: 44c0 95be a8e0 cf3e b760 053d db6b 383e
000002f0: 11a3 dfbd 2402 873e e9ff 253e 14d7 713d
00000300: 6ff7 c83e 0786 3d3c 9742 49bf bc1f 2b3f
00000310: 05fe ba3f 1289 5bbf 34e0 4e3f 65ae 883e
00000320: eb13 50be 6681 463e 6425 b6be ead8 4c3d
00000330: 338c 513f a2f8 073e cf16 9b3e 8eee a3bd
00000340: cef4 a93e 4515 d63e 6be2 ffba c816 f3be
00000350: 5a51 00bf 1d1f 713e d4b0 e0bd 575c 79be
00000360: db9e 573d 63a4 e33d 8046 303e bb9d 6c3e
00000370: f9a1 183f 534b 07be 4a98 d03e 3502 e63e
00000380: 8cb7 8c3e 5fa4 b03e ffd6 84be d6f3 253f
00000390: c082 c9bd a1c3 683d 8036 b6be eef6 bebe
000003a0: 92de afbe 95f3 95be 2c13 523e 162d 24be
000003b0: 8f96 66be cb95 873e 56a5 89be 6e78 80bd
000003c0: 86cb 94be da40 85bd 80a6 d8be 9073 223e
000003d0: 855d b0be 3c3f a7bc 8a5f cfbe 98cc 0dbe
000003e0: 6b9f b6be ac97 2a3f 6b08 b93e 995c 483e
000003f0: 7df0 aabe 9e65 22bf 0604 8a3d b40c debd

lstm.bias_ih_l1 f4 [128]
0.2473932 -0.024141 -0.099207565 -0.20534597 -0.21056542 -0.27999276 -0.11480694 -0.30955154
-0.24407497 -0.54491144 -0.43307012 -0.237125 -0.030818142 -0.05044647 -0.15030496 -0.5077882
-0.36516234 0.053710323 -0.3220021 0.025012214 0.29396832 0.17931056 0.19904327 -0.41439152
-0.30580732 -0.11172442 -0.054609638 0.013602974 0.35816297 -0.37225842 -0.26804262 -0.35623962
0.12937808 0.0037550307 -0.31058693 -0.3482239 -0.5279806 -0.44489637 -0.070711814 -0.0883611
-0.32045218 -0.23865403 -0.59025437 -0.053929586 -0.61697537 -0.38088265 0.24219958 -0.14193791
-0.1852457 -0.42025572 -0.28695396 0.0040580947 0.14735526 0.21038944 0.073602244 -0.7568806
-0.25583243 -0.12635781 0.037962846 -0.44916266 0.042518623 -0.26653022 -0.14655958 0.09898705
0.19549383 0.34007347 -0.16306733 0.099115565 0.047331303 -0.070038125 0.08727058 0.026283886
-0.09461746 -0.02317882 -0.1284116 0.2332726 0.027062368 0.09844637 -0.47477326 0.22736031
-0.025791975 0.17601484 -0.13464347 -0.3718241 -0.29036394 -0.30667534 -0.21371225 -0.28469756
-0.27529144 0.20707975 0.09941422 0.024760773 0.38867626 0.1417346 -0.2711172 0.07765863
-0.18669057 -0.16215137 0.24710941 -0.23543727 -0.19820547 -0.24288964 0.25668183 -0.19796804
-0.28077233 -0.519913 -0.050166808 -0.4058972 0.05365133 -0.06817293 0.065272845 -0.58240336
-0.3828962 -0.44094363 -0.27046013 -0.20563458 -0.07963449 -0.05952725 -0.16946627 -0.016367586
-0.4587595 -0.5433064 -0.13681018 -0.17916372 0.4409063 -0.48955047 -0.15259294 -0.60395855
00000000: a554 7d3e 59c3 c5bc 562d cbbd 3746 52be
00000010: 769e 57be 365b 8fbe e71f ebbd 8a7d 9ebe
00000020: caee 79be 517f 0bbf 5ebb ddbe e5d0 72be
00000030: 5476 fcbc f5a0 4ebd 8be9 19be 68fe 01bf
00000040: 8ff6 babe 5bff 5b3d 76dd a4be 6ae6 cc3c
00000050: 0483 963e 309d 373e 00d2 4b3e 202b d4be
00000060: c792 9cbe c6cf e4bd 5bae 5fbd 02df 5e3c
00000070: 2361 b73e a898 bebe e23c 89be 0a65 b6be
00000080: b07b 043e f616 763b 4005 9fbe 674a b2be
00000090: bd29 07bf 75c9 e3be 5bd1 90bd aaf6 b4bd
000000a0: 4f12 a4be b961 74be e91a 17bf 45e5 5cbd
000000b0: 19f2 1dbf 0d03 c3be 2b03 783e 2c58 11be
000000c0: 0cb1 3dbe c22b d7be a1eb 92be c4f9 843b
000000d0: 4ce4 163e 5470 573e c6bc 963d edc2 41bf
000000e0: 78fc 82be f163 01be ee7e 1b3d a6f8 e5be
000000f0: 0228 2e3d a676 88be b713 16be b9b9 ca3d
00000100: 892f 483e 1c1e ae3e 1ffb 26be 1afd ca3d
00000110: 78de 413d 2670 8fbd ebba b23d 4e51 d73c
00000120: cdc6 c1bd 82e1 bdbc 557e 03be 03df 6e3e
00000130: e6b1 dd3c 409e c93d 7b15 f3be 24d1 683e
00000140: b149 d3bc 3c3d 343e fadf 09be ba5f bebe
00000150: 95aa 94be 8d04 9dbe 62d7 5abe e1c3 91be
00000160: 00f3 8cbe b70c 543e af99 cb3d 1bd7 ca3c
00000170: 9300 c73e e022 113e e0cf 8abe 7d0b 9f3d
00000180: d02b 3fbe 020b 26be 400a 7d3e 7816 71be
00000190: 60f6 4abe 10b8 78be cd6b 833e 22b8 4abe
000001a0: 64c1 8fbe 0519 05bf b67b 4dbd c2d1 cfbe
000001b0: 7fc1 5b3d 409e 8bbd c5ad 853d 6318 15bf
000001c0: f90a c4be 5dc3 e1be c079 8abe df91 52be
000001d0: 6817 a3bd d8d2 73bd 9188 2dbe 5115 86bc
000001e0: 86e2 eabe 2116 0bbf f817 0cbe b276 37be
000001f0: 78be e13e 5ca6 fabe 5341 1cbe 079d 1abf

lstm.bias_hh_l1 f4 [128]
0.34838152 0.120959766 0.010343379 -0.022618065 0.040332083 -0.292532 0.04197166 -0.28482294
-0.21237858 -0.5519113 -0.4238633 -0.43997803 0.022495242 -0.122776344 -0.02524616 -0.2637773
-0.33234096 0.08636621 -0.38277224 0.090025365 0.22501034 -0.034215692 0.04369899 -0.17184229
-0.33121735 -0.3356965 -0.023666058 0.1512895 0.33981058 -0.41490054 -0.30649653 -0.14824156
0.14021796 0.023063231 -0.27885118 -0.33999032 -0.7201446 -0.31877142 0.13914217 0.028918048
-0.27637857 -0.036876556 -0.67653584 -0.19236061 -0.45180708 -0.38118768 0.32004586 -0.31911036
-0.15274549 -0.21524821 -0.3713495 -0.2250486 -0.098166466 0.37055844 0.08923344 -0.45620215
-0.1400835 -0.119620256 -0.05448593 -0.49841273 -0.0797002 -0.33895895 -0.05752271 0.00656423
0.24952236 0.09747565 -0.36575752 0.29538277 -0.1993902 0.14827578 0.1979427 0.23489556
0.10585331 -0.2370156 0.030715384 0.2201615 0.09238084 -0.037594352 -0.36687538 -0.023721665
-0.14678414 0.20195423 0.14100346 -0.38160586 -0.2825875 -0.18881182 -0.34057647 -0.28525728
-0.20468816 0.23054235 0.22026293 0.16757126 0.39363185 -0.13273188 -0.1470677 -0.16977999
-0.10164274 -0.19113126 0.1922072 -0.13630842 0.026052278 -0.16738275 0.39504212 -0.13968301
-0.2804782 -0.5754837 -0.15171853 -0.5177865 0.04222581 0.029581968 0.21793039 -0.37517038
-0.12587456 -0.4002021 -0.27886635 0.10639363 0.05002289 -0.26013207 -0.10628584 -0.20421533
-0.48533148 -0.5452166 -0.18753794 -0.024155378 0.2807017 -0.36416686 -0.11753597 -0.40082353
00000000: 105f b23e c1b9 f73d 4777 293c 8549 b9bc
00000010: 4133 253d c1c6 95be 7aea 2b3d 50d4 91be
00000020: c579 59be 0f4a 0dbf 9c04 d9be cd44 e1be
00000030: f147 b83c 2a72 fbbd 09d1 cebc d10d 87be
00000040: 9828 aabe c4e0 b03d b9fa c3be 385f b83d
00000050: 1c69 663e c125 0cbd b6fd 323d 6df7 2fbe
00000060: 5295 a9be 69e0 abbe 52df c1bc a2eb 1a3e
00000070: a7fb ad3e d86d d4be 1ded 9cbe a3cc 17be
00000080: 4c95 0f3e 1aef bc3c 95c5 8ebe 3613 aebe
00000090: 665b 38bf 0236 a3be 497b 0e3e 8be5 ec3c
000000a0: 7e81 8dbe df0b 17bd 7431 2dbf 2efa 44be
000000b0: 4253 e7be 082b c3be 0ddd a33e 6f62 a3be
000000c0: 5069 1cbe 076a 5cbe 8621 bebe 2473 66be
000000d0: 800b c9bd d6b9 bd3e 06c0 b63d 5493 e9be
000000e0: 0d72 0fbe 77fb f4bd a32c 5fbd f42f ffbe
000000f0: dc39 a3bd 078c adbe ef9c 6bbd c118 d73b
00000100: ca82 7f3e 50a1 c73d 9244 bbbe 693c 973e
00000110: f22c 4cbe 9bd5 173e 7eb1 4a3e 7688 703e
00000120: 9fc9 d83d 38b4 72be d49e fb3c 0472 613e
00000130: 2a32 bd3d 89fc 19bd 17d7 bbbe f053 c2bc
00000140: 954e 16be 17cd 4e3e 3663 103e d861 c3be
00000150: 4faf 90be e357 41be 0a60 aebe 3e0d 92be
00000160: c699 51be 4b13 6c3e 9b8c 613e cd97 2b3e
00000170: 1d8a c93e deea 07be ea98 16be ceda 2dbe
00000180: 122a d0bd eab7 43be f7d1 443e 6f94 0bbe
00000190: 966b d53c 6266 2bbe f642 ca3e 1009 0fbe
000001a0: d79a 8fbe e652 13bf 1a5c 1bbe a88d 04bf
000001b0: f9f4 2c3d e255 f23c 2529 5f3e 5516 c0be
000001c0: 43e5 00be 4ae7 ccbe 92c7 8ebe e7e4 d93d
000001d0: cde4 4c3d 0830 85be 64ac d9bd d31d 51be
000001e0: 5e7d f8be 5193 0bbf f209 40be 80e1 c5bc
000001f0: 22b8 8f3e 1474 babe b3b6 f0bd be38 cdbe

lstm.weight_ih_l2 f4 [128, 32]
-0.086353876 0.40465337 0.24582621 -0.43882877 -0.07631245 0.9106616 -1.150583 -0.85338265
-0.15311483 -0.53681093 0.7094455 -0.30748022 -0.698538 1.3267151 -0.61326456 0.039487723
-0.45975903 -0.10132943 -0.5831758 0.19606332 0.23116691 -0.5155028 -0.5990426 0.83186126
-0.35909414 0.312682 0.30801582 -0.04440047 0.057446808 0.25141752 -0.7777283 -0.39888057
-0.5094705 0.11491483 -0.2571818 -0.528142 0.019558039 0.38911575 -0.23847514 -0.40836653
-0.43714702 -0.018565241 -0.14684907 -0.43447465 -0.26558638 -0.028446255 0.85955316 -0.41389835
-0.011269919 -0.2945381 0.15894693 -0.35829094 0.023164582 0.86721444 -0.10565368 -0.628014
0.32484227 -0.4355697 0.23616458 0.08718775 -0.15244463 0.26936316 -0.30165842 -0.41428798
0.35812053 -0.32741436 -0.059335943 0.42644364 -0.20600861 0.1544252 -0.058811616 -0.04855305
0.14763269 -0.29226834 0.027840618 -0.45994857 -0.29052156 -0.022851596 -0.018674808 -0.39312476
0.30621728 0.33267877 -0.45601442 0.023121616 0.09776318 -0.23756418 0.1314123 -0.1997891
0.07648029 -0.058638968 0.2849152 0.36407605 0.43889195 0.10180945 0.6118122 0.39973548
0.054902352 0.12282522 -0.55179536 0.060701273 -0.38511035 0.67863536 -0.49024555 0.64257824
0.19476473 -0.45254034 0.19841383 0.09342746 -0.5632826 0.19275056 -0.20854218 0.12565906
-0.27868903 -0.32720262 -0.2148051 -0.37325567 0.050127607 -0.33858985 -0.07971959 0.22751282
0.19818382 -0.038423732 0.08475392 0.24521533 0.44034207 -0.23277314 -0.4197704 -0.6558124
0.09376184 0.011682681 0.1928504 -0.15650772 -0.042184956 0.631049 0.20821908 -0.18006064
-0.40987223 0.03673383 0.22106127 -0.026961042 0.49909037 -0.24075797 0.18872045 -0.2452563
-0.028599873 -0.5833255 0.09510118 -0.5745995 0.07323479 0.26588827 -0.052343756 -0.2681294
-0.060406175 0.079303466 0.30661723 -0.5780131 -0.5334503 -0.24684021 -0.20429207 0.09904147
-0.2181809 0.042270157 -0.1152198 -0.20127459 -0.018013887 0.57187605 0.27421755 -1.103011
-0.14601669 -0.5128054 0.051041912 -0.008911896 0.17138442 0.29507625 0.2310599 0.03834333
-0.1073854 -0.2907881 -0.23068753 -0.12536332 0.049247492 -0.15360238 0.26043093 -0.17774205
0.06230467 0.13334139 -0.016595505 -0.27806634 -0.14683394 0.2212335 -0.036540363 -0.1851109
0.04009829 -0.25293565 -0.41759154 -0.57724416 0.3558907 -0.15163672 -0.03555888 0.088415064
-0.14618683 -0.1634141 0.23585252 -0.101629436 -0.44410408 0.13818674 0.4157647 -0.6067733
0.04254186 0.022081593 -0.062318098 -0.17875163 0.39457682 -0.40774092 0.22773038 -0.5718974
0.14804564 -0.20404814 -0.18076335 0.2902797 0.01696172 -0.53681886 0.10950257 -0.3281859
0.028486632 -0.3563248 -0.56030816 -0.44862857 -0.80850786 0.3039784 0.87112486 -0.13720527
-0.18111886 0.57304573 0.23229228 0.009894682 -0.46974227 -0.56409633 0.55002844 -0.22696175
0.100419946 0.32745317 0.5054318 -0.28353894 0.3732693 0.2236069 0.165706 -0.83936995
0.34554175 -0.18047671 -0.032196887 0.3084106 -0.16856897 -0.1712266 0.5545582 -0.12855612
00000000: 4dda b0bd ba2e cf3e deb9 7b3e 2aae e0be
00000010: b449 9cbd 1e21 693f 4e46 93bf 4977 5abf
00000020: 22ca 1cbe 716c 09bf 389e 353f 0c6e 9dbe
00000030: 63d3 32bf cdd1 a93f e8fe 1cbf e1bd 213d
00000040: 8965 ebbe ce85 cfbd 024b 15bf d3c4 483e
00000050: 05b7 6c3e fef7 03bf db5a 19bf dcf4 543f
00000060: 30db b7be db17 a03e 40b4 9d3e 44dd 35bd
00000070: 584d 6b3d ccb9 803e 3419 47bf 133a ccbe
00000080: a96c 02bf 7758 eb3d 55ad 83be 5034 07bf
00000090: 2e38 a03c 2e3a c73e d432 74be 6b15 d1be
000000a0: bcd1 dfbe 2216 98bc 9a5f 16be 7673 debe
000000b0: f0fa 87be 1f08 e9bc ad0b 5c3f 7cea d3be
000000c0: 77a5 38bc b3cd 96be fcc2 223e e971 b7be
000000d0: a6c3 bd3c c401 5e3f f560 d8bd 87c5 20bf
000000e0: ba51 a63e fe02 dfbe 21d5 713e 7e8f b23d
000000f0: 721a 1cbe f8e9 893e f972 9abe 8e1d d4be
00000100: 935b b73e dba2 a7be 3f0a 73bd d256 da3e
00000110: ecf3 52be a421 1e3e 73e4 70bd 90df 46bd
00000120: 062d 173e 32a4 95be 0212 e43c 617e ebbe
00000130: 3ebf 94be 4533 bbbc e9fb 98bc a647 c9be
00000140: 83c8 9c3e df54 aa3e b97a e9be 8b69 bd3c
00000150: 1038 c83d 0644 73be f290 063e 8495 4cbe
00000160: b3a1 9c3d 6a2f 70bd 68e0 913e 2d68 ba3e
00000170: 72b6 e03e 7981 d03d b99f 1c3f 21aa cc3e
00000180: 4ae1 603d ca8b fb3d 7642 0dbf e6a1 783d
00000190: 2f2d c5be 0cbb 2d3f 7701 fbbe 0280 243f
000001a0: 6870 473e 5eb3 e7be ff2c 4b3e e556 bf3d
000001b0: 4a33 10bf 6760 453e 158c 55be c5ac 003e
000001c0: 54b0 8ebe 1a87 a7be def5 5bbe 5e1b bfbe
000001d0: 9b52 4d3d a65b adbe 0644 a3bd 1ff9 683e
000001e0: b3f0 4a3e 3462 1dbd 7793 ad3d ba19 7b3e
000001f0: 8474 e13e 155c 6ebe 25ec d6be 52e3 27bf
00000200: 3506 c03d b768 3f3c 937a 453e 8f43 20be
00000210: 22ca 2cbd 6d8c 213f 6237 553e d161 38be
00000220: c6da d1be 3676 163d e35d 623e 67dd dcbc
00000230: c688 ff3e 4289 76be ef3f 413e 7824 7bbe
00000240: 484a eabc d254 15bf 68c4 c23d f418 13bf
00000250: 1ffc 953d 8222 883e 6866 56bd 4248 89be
00000260: 776c 77bd db69 a23d effc 9c3e abf8 13bf
00000270: 3390 08bf aec3 7cbe f131 51be 41d6 ca3d
00000280: d06a 5fbe 7923 2d3d 5cf8 ebbd ed1a 4ebe
00000290: dc91 93bc 7866 123f 3e66 8c3e 772f 8dbf
000002a0: 6685 15be 3747 03bf 5311 513d 3303 12bc
000002b0: 667f 2f3e 3c14 973e f79a 6c3e e50d 1d3d
000002c0: e0ec dbbd 2ee2 94be 5a39 6cbe 3e5f 00be
000002d0: bdb7 493d f149 1dbe 3457 853e 0302 36be
000002e0: 2f33 7f3d a58a 083e 4cf3 87bc b65e 8ebe
000002f0: a35b 16be 098b 623e 59ab 15bd b68d 3dbe
00000300: 1b3e 243d c880 81be 8fce d5be 46c6 13bf
00000310: 4e37 b63e a846 1bbe 30a6 11bd f512 b53d
00000320: 00b2 15be 0756 27be 5383 713e 1823 d0bd
00000330: 9c61 e3be d380 0d3e 1cdf d43e 7f55 1bbf
00000340: 6040 2e3d 75e4 b43c 4341 7fbd ab0a 37be
00000350: f905 ca3e 6bc3 d0be 2732 693e de67 12bf
00000360: 4799 173e fff1 50be 071a 39be 8a9f 943e
00000370: 4ef3 8a3c f66c 09bf e242 e03d fb07 a8be
00000380: cc5c e93c 3470 b6be 5b70 0fbf a5b2 e5be
00000390: 5ffa 4ebf 0fa3 9b3e 0a02 5f3f 8a7f 0cbe
000003a0: 3977 39be 20b3 123f 07de 6d3e 4e1d 223c
000003b0: 0f82 f0be 9e68 10bf aace 0c3f a968 68be
000003c0: f9a8 cd3d f1a7 a73e fa63 013f 042c 91be
000003d0: 271d bf3e 35f9 643e d5ae 293e f3e0 56bf
000003e0: d9ea b03e e3ce 38be e2e0 03bd ffe7 9d3e
000003f0: 589d 2cbe 0756 2fbe 87f7 0d3f 37a4 03be

lstm.weight_hh_l2 f4 [128, 32]
0.38894352 -0.056227855 -0.07343457 -0.119941704 -0.3329415 -0.10676916 -0.31575683 -0.3396023
-0.09358761 0.20370233 -0.31318486 0.36135632 -0.06046667 -0.08918812 0.07977684 -0.047050446
0.015232964 -0.23399714 -0.015294176 -0.08874414 -0.4549009 0.5637722 0.21192543 -0.013961745
-0.26256624 0.27335775 0.12294566 -0.103191756 0.37915897 0.3358751 0.19688608 0.41538158
0.81694555 0.74804133 -0.26377743 -0.14007245 0.025922526 0.314752 -0.19135855 0.06950335
-0.31352088 0.0077838567 -0.24407956 0.055972982 0.40571854 0.67093444 0.38780642 0.20162633
-0.034608956 -0.37997752 0.09517842 0.22760426 0.020087827 0.053948116 0.19362754 0.16404197
0.2714616 0.8123513 0.24447504 -0.18281162 0.047167663 -0.02203316 0.18639712 -0.31862733
0.245457 -0.44176814 0.42048946 -0.26184484 -0.060336947 0.0681239 0.12327474 0.67596763
-0.3960445 0.1756468 -0.060523886 -0.2295287 0.013678681 -0.34930703 -0.23050748 0.38836524
1.0684736 -0.10196748 0.21182336 0.81915045 -0.29950187 -0.42838416 -0.47355214 0.43025124
0.021955896 0.89392596 0.14403597 0.14896923 1.209972 -0.19722304 -0.26639313 -1.281697
0.4089526 -0.5429848 0.39032575 -0.090564236 0.22453305 0.34220082 -0.1331094 0.3976408
0.1379244 -0.34523395 -0.28396952 0.22912417 -0.42674965 -0.6741143 0.30125192 0.00693993
-0.1656234 0.06752025 -0.15738446 0.025214486 0.27190095 -0.29462406 0.31559604 0.0056702783
0.0003357448 0.14775485 -0.15035222 -0.4454672 -0.44528338 0.3165306 -0.047988076 -0.3495197
0.35269213 0.32461676 -0.10348413 0.048030537 -0.26471484 -0.34331685 0.29008615 0.1141833
0.3177822 0.21347275 0.039949037 0.043359898 0.07410355 0.7230052 -0.1120998 -0.22394826
-0.33783147 0.033486 -0.30862004 0.3078506 0.20558777 -0.5714382 -0.40593022 -0.3383147
-0.35257313 0.5329255 0.17377122 0.130969 -0.16430944 -0.12976559 -0.15379998 -0.34252387
0.589761 0.5645502 0.15526521 -0.5465831 -0.46618742 -0.3073997 0.14358251 0.19019319
0.029091965 0.46586043 -0.12914613 0.27987552 -0.40838552 0.10923069 0.15462033 0.30174014
-0.59177417 0.2341892 -0.27470666 0.8924915 -0.30718958 -0.17453006 0.05032067 -0.0024328046
-0.6391088 0.4349252 0.51640165 -0.17451149 -0.049860865 0.36299643 -0.49942976 -0.2619356
0.49718267 -0.08623272 -0.28963807 0.27460402 -0.20428386 -0.10686233 0.32116488 0.07070956
0.08517526 -0.5360347 0.18719193 -0.17600079 -0.08789424 -0.22160718 -0.106972106 0.1308738
0.18921845 -0.13672316 -0.08150805 -0.15408313 0.07683542 -0.0010754014 -0.09012663 0.04790178
0.13794637 0.577445 -0.03459909 0.5077287 0.17125975 -0.23336993 -0.32891986 -0.8925087
-0.4743158 0.0204789 -0.9769648 1.0043148 -0.30891266 0.15988262 0.3692876 0.26512054
0.30514714 -0.43638176 0.26380748 -0.4987154 -0.21844321 0.0007217495 -0.14879759 -0.31759456
-0.18141091 0.25380594 0.028309131 -0.2765905 0.589476 -0.17015411 -0.45675883 -0.35624388
0.41508487 0.008282885 -0.2966353 0.40388685 -0.81734 -0.2677797 -0.27003235 0.19541314
00000000: 9b23 c73e 2e4f 66bd dd64 96bd ffa3 f5bd
00000010: 4f77 aabe caa9 dabd e1aa a1be 5ae0 adbe
00000020: dcaa bfbd 5897 503e c459 a0be b203 b93e
00000030: e6ab 77bd 43a8 b6bd 0a62 a33d f8b7 40bd
00000040: af93 793c f29c 6fbe 6c94 7abc 7dbf b5bd
00000050: c5e8 e8be 6053 103f fb02 593e cebf 64bc
00000060: 156f 86be 8cf5 8b3e efca fb3d 3356 d3bd
00000070: 2021 c23e d2f7 ab3e 819c 493e e5ac d43e
00000080: 5823 513f a37f 3f3f d60d 87be 276f 0fbe
00000090: 7a5b d43c 2d27 a13e 7ff3 43be c657 8e3d
000000a0: cf85 a0be b90f ff3b feef 79be ed43 653d
000000b0: 57ba cf3e 5cc2 2b3f 908e c63e 2277 4e3e
000000c0: 1fc2 0dbd 6a8c c2be e7ec c23d 1711 693e
000000d0: 3a8f a43c b3f8 5c3d 4c46 463e 9efa 273e
000000e0: 04fd 8a3e 41f6 4f3f aa57 7a3e f832 3bbe
000000f0: e132 413d e37e b4bc e3de 3e3e 1f23 a3be
00000100: 1459 7b3e 6f2f e2be 654a d73e 8710 86be
00000110: e023 77bd 8b84 8b3d 7877 fc3d 370c 2d3f
00000120: 58c6 cabe c1dc 333e e5e7 77bd 9209 6bbe
00000130: 8c1c 603c 5fd8 b2be 270a 6cbe cfd7 c63e
00000140: bec3 883f 53d4 d0bd 39e8 583e d8b3 513f
00000150: 4f58 99be 2b55 dbbe 6d75 f2be e449 dc3e
00000160: dadc b33c 55d8 643f 2a7e 133e 648b 183e
00000170: 5de0 9a3f d6f4 49be ae64 88be a60e a4bf
00000180: 3c62 d13e 0d01 0bbf c7d8 c73e be79 b9bd
00000190: feeb 653e f234 af3e d54d 08be 9397 cb3e
000001a0: 0e3c 0d3e 81c2 b0be 7464 91be 879f 6a3e
000001b0: ee7e dabe c192 2cbf b13d 9a3e 5a68 e33b
000001c0: 2e99 29be 0f48 8a3d 6429 21be 9c8e ce3c
000001d0: 9a36 8b3e f7d8 96be ce95 a13e becd b93b
000001e0: e706 b039 0c4d 173e eff5 19be 4714 e4be
000001f0: 2ffc e3be 4c10 a23e 258f 44bd 3ff4 b2be
00000200: 1094 b43e 2b34 a63e 7def d3bd abbb 443d
00000210: b488 87be 3ac7 afbe 2c86 943e efd8 e93d
00000220: 59b4 a23e 9a98 5a3e 9aa1 233d 269a 313d
00000230: 9ac3 973d de16 393f 9494 e5bd b152 65be
00000240: 3ff8 acbe 9e28 093d 7203 9ebe 989e 9d3e
00000250: 9a85 523e c649 12bf 16d6 cfbe 9637 adbe
00000260: 7784 b4be ce6d 083f 15f1 313e bd1c 063e
00000270: bc40 28be 45e1 04be be7d 1dbe 4a5f afbe
00000280: 94fa 163f 5d86 103f d8fd 1e3e dfec 0bbf
00000290: 1eb0 eebe 7e63 9dbe 4b07 133e 01c2 423e
000002a0: 4652 ee3c 4285 ee3e e23e 04be d84b 8f3e
000002b0: e817 d1be 57b4 df3d cb54 1e3e af7d 9a3e
000002c0: 837e 17bf 4bcf 6f3e 5aa6 8cbe 537a 643f
000002d0: f447 9dbe 02b8 32be 0c1d 4e3d b06f 1fbb
000002e0: a29c 23bf 84ae de3e e632 043f 24b3 32be
000002f0: e83a 4cbd abda b93e 42b5 ffbe 6c1c 86be
00000300: ba8e fe3e c89a b0bd 714b 94be e698 8c3e
00000310: ca2f 51be a3da dabd b96f a43e 2cd0 903d
00000320: 5e70 ae3d 9239 09bf 3eaf 3f3e 8d39 34be
00000330: e501 b4bd feec 62be 3114 dbbd c803 063e
00000340: 7bc2 413e 2801 0cbe b1ed a6bd f8c7 1dbe
00000350: e45b 9d3d 7cf4 8cba 5094 b8bd a834 443d
00000360: d041 0d3e 6fd3 133f c7b7 0dbd 82fa 013f
00000370: b75e 2f3e 87f8 6ebe 2f68 a8be 737b 64bf
00000380: 85d9 f2be 5ec3 a73c 5d1a 7abf 638d 803f
00000390: cd29 9ebe 45b8 233e 4413 bd3e e1bd 873e
000003a0: 3f3c 9c3e 6e6d dfbe c611 873e a057 ffbe
000003b0: 94af 5fbe ca33 3d3a 655e 18be c19b a2be
000003c0: c8c3 39be daf2 813e 8de8 e73c 459d 8dbe
000003d0: e6e7 163f e13c 2ebe 4bdc e9be 9965 b6be
000003e0: 0186 d43e f0b4 073c 95e0 97be 42ca ce3e
000003f0: 323d 51bf 6c1a 89be ae41 8abe 621a 483e
