notebooks/lstm_model.pt (torch, 56949 bytes, 9 tensors)

lstm.weight_ih_l0 f4 [128, 3]
0	0x3d3bd96e	0.045861654
1	0x3da369d1	0.07979167
2	0xbe8647ed	-0.2622675
3	0xbd444e40	-0.047926188
4	0x3dc96805	0.09834293
5	0xbe35ddca	-0.17760387
6	0x3ec5a978	0.38605857
7	0x3f177def	0.59176534
8	0x3ec8f4e2	0.3924933
9	0x3fe5dd72	1.7958205
10	0x3f11d75c	0.5696924
11	0x3f76a1f2	0.9634086
12	0xbf29c3ef	-0.66314596
13	0xbdb7d9e0	-0.08977103
14	0xbe6d4aa5	-0.23173006
15	0x3eff7f9c	0.49902046
16	0x3f024d86	0.5089954
17	0x3e9605e7	0.29301378
18	0xbec0c9f7	-0.37654087
19	0xbf44cac2	-0.76871884
20	0xbf247457	-0.6424002
21	0xbeb584bf	-0.3545284
22	0xbea69441	-0.32534984
23	0xbf0c0289	-0.5469137
24	0xbd161e28	-0.036649853
25	0x3f1707a9	0.58996063
26	0xbf0cbfe9	-0.5498033
27	0xbf77f580	-0.9685898
28	0xbe61f31f	-0.220654
29	0xbf163690	-0.58677006
30	0x3f380d57	0.71895355
31	0x3cbd7af8	0.023129925
32	0x3e5cc188	0.21558201
33	0xbead6dc2	-0.338728
34	0x3eaed65e	0.34147924
35	0xbe9d24d1	-0.3069215
36	0xbe61a8f1	-0.22037102
37	0x3bde0e26	0.006776589
38	0xbed08e40	-0.40733528
39	0xbe3d477d	-0.18484302
40	0x3f180a1c	0.59390426
41	0xbd8a6f93	-0.06759562
42	0xbe93682b	-0.2879041
43	0x3e22f519	0.1591381
44	0xbf2130a3	-0.6296484
45	0xbe8cf800	-0.2753296
46	0xbe659d9b	-0.22423403
47	0xbf494337	-0.78618187
48	0xbdf75774	-0.12077227
49	0x3b1ca9b0	0.0023904853
50	0xbe231601	-0.15926363
51	0xbf01e1dd	-0.50735265
52	0xbee403d2	-0.44534165
53	0x3e3516da	0.17684498
54	0xbe593c39	-0.2121438
55	0x3c8b60ff	0.017014025
56	0xbee2f6d2	-0.44328934
57	0x3e403e04	0.18773657
58	0xbe8013cc	-0.25015104
59	0x3e38296f	0.17984556
60	0x3de2e4cb	0.11078795
61	0x3f16fc32	0.5897857
62	0x3d492efb	0.04911707
63	0xbf2ed95d	-0.6830042
64	0x3d8866a7	0.066602044
65	0xbf1e2804	-0.6177981
66	0x3eaf1c38	0.34201217
67	0xbeeb44c9	-0.45950916
68	0x3e747ae2	0.23875001
69	0x3e6bd027	0.23028623
70	0x3f3ddf18	0.7416854
71	0x3e910057	0.28320572
72	0x3f8178f5	1.0115038
73	0x3e009a0b	0.12558763
74	0x3fac2334	1.3448243
75	0x3f91813d	1.1367565
76	0x3e353694	0.17696601
77	0x3f262831	0.6490508
78	0x3da7fe80	0.08202839
79	0xbe6f18b1	-0.23349263
80	0x3e6d5b2b	0.23179309
81	0xbd97e940	-0.07417536
82	0x3e885217	0.2662513
83	0xbf81e991	-1.0149404
84	0xbe96c7bd	-0.29449263
85	0x3e1cb62e	0.15303871
86	0xbf4ec361	-0.80766875
87	0x3e75bbaf	0.23997377
88	0xbe2d6b6b	-0.16935508
89	0xbdc7c122	-0.09753634
90	0xbdf79129	-0.12088234
91	0x3e9e3749	0.30901554
92	0xbe83586f	-0.25653407
93	0xbefb3b45	-0.49068657
94	0x3e1f342d	0.15547247
95	0xbf1f5ee9	-0.62254196
96	0xbdd772b5	-0.105199255
97	0xbcd2e021	-0.025741639
98	0xbf26a2f0	-0.6509237
99	0xbfb03831	-1.3767148
100	0x3f614ee8	0.88011026
101	0xbfe4a37f	-1.7862395
102	0xbfdb7f86	-1.7148292
103	0x3f37e81e	0.7183856
104	0xc0054d79	-2.0828536
105	0x3fb5854e	1.4181306
106	0x3d890d45	0.06691984
107	0x3f9d9695	1.2311579
108	0xbf245c4b	-0.6420333
109	0x3e71b540	0.23604298
110	0xbf47d607	-0.78060955
111	0x3f381162	0.71901524
112	0x3eb45c32	0.3522659
113	0x3f0a5625	0.54037696
114	0xbf3fa74d	-0.74864656
115	0xbed25adf	-0.41084954
116	0xbf62fcdd	-0.8866709
117	0x3c1681a3	0.009186181
118	0x3ef70be8	0.4825127
119	0x3e6f81fb	0.23389427
120	0xbe0bf13c	-0.13666242
121	0xbdee366c	-0.11631474
122	0xbf237e4b	-0.6386458
123	0xc0608c03	-3.5085456
124	0xbc8dc9b9	-0.017308103
125	0xc0033614	-2.0501757
126	0x401a6f34	2.4130373
127	0xbe3436e2	-0.17599061
128	0x3f347d03	0.7050325
129	0xbe975f68	-0.29564977
130	0x3f0fdac9	0.56193215
131	0xbf136c6a	-0.575873
132	0x3efdb02b	0.49548468
133	0x3d758110	0.059937537
134	0xbed996ff	-0.42498013
135	0x3f404384	0.7510302
136	0x3e529732	0.20565489
137	0x3f213e0a	0.6298529
138	0x3f864355	1.0489298
139	0x3e585181	0.21124841
140	0x3f9ade19	1.2099029
141	0xbfd28600	-1.6447144
142	0x3e68729d	0.22699971
143	0xc00a3301	-2.159363
144	0xbdd79bb3	-0.10527744
145	0x3d75c2fc	0.060000405
146	0x3c22e8ed	0.009943229
147	0xbeaf5a7b	-0.3424872
148	0x3ca39321	0.019967617
149	0xbeff86aa	-0.49907428
150	0xbe8eeaf0	-0.27913618
151	0x3e3e3a13	0.18576841
152	0xbf42547d	-0.7591017
153	0xbf25f2ae	-0.64823425
154	0x3db201da	0.086917594
155	0xbefe3960	-0.4965315
156	0xbd8258ba	-0.063645795
157	0x3e1483b1	0.14503361
158	0xbe1b821c	-0.15186352
159	0x3f1ecc8e	0.62030876
160	0xbd9694fd	-0.07352636
161	0x3ed7f3ea	0.4217828
162	0xbdc122eb	-0.09430488
163	0xbe68d337	-0.22736822
164	0x3f2db82d	0.67859155
165	0xbae46bb8	-0.0017427122
166	0x3effe843	0.4998189
167	0x3f026a0e	0.50943077
168	0xbfbc0007	-1.4687508
169	0x3e4a7349	0.1977054
170	0xbf7cad59	-0.9870201
171	0x3ec52876	0.38507432
172	0xbe7148cb	-0.23562925
173	0x3b96cc46	0.004601988
174	0x3f88d711	1.0690633
175	0xbe193ccc	-0.14964598
176	0x3fd42271	1.6573011
177	0x3dd4b0c2	0.103852764
178	0x3e39d95e	0.18149325
179	0xbebb7735	-0.36614385
180	0x3fcba410	1.5909443
181	0xbef71adb	-0.48262677
182	0x3fba6d58	1.4564619
183	0xbf7ed93f	-0.9955024
184	0xbe72c7d0	-0.23709035
185	0xbfd57dec	-1.6679053
186	0xbec64347	-0.38723204
187	0xba86f263	-0.0010295626
188	0xbcbd59bd	-0.02311408
189	0xbfa6c31c	-1.3028293
190	0x3c7bbf13	0.01536538
191	0xbff3efba	-1.9057534
192	0xbf99167e	-1.1959989
193	0x3ecea7bb	0.40362343
194	0x3f0458cb	0.5169799
195	0x3e706af6	0.23478302
196	0xbeb2bd2f	-0.3490996
197	0x3dd320d4	0.10308996
198	0xbf93df60	-1.1552544
199	0x3f130229	0.5742517
200	0xbf5330ee	-0.82496536
201	0x3f2df27e	0.6794814
202	0x3efffd4e	0.49997944
203	0xbe52d4ef	-0.2058904
204	0xbf541bae	-0.82854736
205	0x3e0c0e38	0.13677299
206	0xbf010004	-0.5039065
207	0x3f4e4606	0.805756
208	0xbdb6f815	-0.08934037
209	0x3d849d32	0.06475295
210	0xbe84441f	-0.25833222
211	0x3edf997c	0.43671787
212	0x3e2b239b	0.16712801
213	0x3da1ee99	0.07906837
214	0x3e82f13f	0.2557468
215	0x3eae81e5	0.34083477
216	0xbdb06f84	-0.0861502
217	0x3ea92362	0.33034807
218	0x3f7dc04c	0.99121547
219	0x3e1b49ff	0.15164946
220	0xbec7fda4	-0.390607
221	0x3d8a6357	0.06757229
222	0x3e89dad3	0.26924762
223	0x3f04407c	0.51660895
224	0x3dc48d12	0.095972195
225	0xbf6365a7	-0.88826984
226	0x3db91761	0.09037662
227	0xbd86a2b3	-0.06574001
228	0xbf201c8c	-0.6254356
229	0xbea1a553	-0.31571445
230	0xbf0c0b57	-0.54704803
231	0xbe8d86b6	-0.2764184
232	0xbe0416c1	-0.12899305
233	0xbedbca45	-0.42927757
234	0xbfebaa83	-1.8411411
235	0xbebb3dc8	-0.36570573
236	0xbfc9c186	-1.5762184
237	0x3e420526	0.18947276
238	0xbf2337c1	-0.6375695
239	0xbed3d1ab	-0.413709
240	0x3ea517ff	0.3224487
241	0x3ea0397e	0.31293863
242	0x3f08cb9c	0.53435683
243	0x3e9ce4ff	0.3064346
244	0x3f8e8ed9	1.1137344
245	0x3ee98097	0.4560592
246	0xbeb7f9b1	-0.35932687
247	0xbe4975cd	-0.19673844
248	0xbf850ce2	-1.0394557
249	0x3dd129d3	0.102130555
250	0x3f67dcdd	0.90571386
251	0x3e7ed5d7	0.24886261
252	0x3ebfb66f	0.37443873
253	0x3e1ab349	0.15107454
254	0x3e681270	0.22663283
255	0x3f01d304	0.5071261

lstm.weight_hh_l0 f4 [128, 32]
0	0x3e4e1170	0.2012384
1	0xbe250f39	-0.16119088
2	0x3f652793	0.8951351
3	0xbf6db059	-0.9284721
4	0x3dc6f2cf	0.09714281
5	0xbe4d07b4	-0.2002247
6	0xbf0dd497	-0.5540251
7	0x3f250272	0.64456856
8	0x3e2a98df	0.16659878
9	0xbc42d481	-0.011891485
10	0xbf12e91a	-0.57386935
11	0xbe10d050	-0.14141965
12	0xbf3cbbfb	-0.73724335
13	0xbddb0939	-0.106951185
14	0xbee29fa3	-0.44262418
15	0xbedaca50	-0.42732477
16	0x3eba1693	0.36345348
17	0xbf2d02f0	-0.6758261
18	0x3da3f58d	0.080058195
19	0x3ebcf00b	0.36901888
20	0x3eca427c	0.3950385
21	0x3d921903	0.07133677
22	0xbf528cef	-0.822463
23	0xbd928e09	-0.07155997
24	0xbf20d5e5	-0.6282638
25	0xbeb58f7b	-0.3546103
26	0xbe34d72f	-0.17660211
27	0xbe12401f	-0.14282273
28	0x3ea15a42	0.31514174
29	0xbe747916	-0.23874316
30	0xbdae4913	-0.085100316
31	0x3e847812	0.25872856
32	0x3e230788	0.15920842
33	0xbf9e7215	-1.2378565
34	0xbf0c77f6	-0.54870546
35	0xbec9974e	-0.3937325
36	0xbf092f05	-0.5358737
37	0x3f613dad	0.87984735
38	0x3edd08da	0.43170816
39	0x3f328cb2	0.69745934
40	0x3e998df7	0.29991123
41	0xbf5ff352	-0.8748065
42	0x3f484d05	0.7824252
43	0x3e4a523b	0.19757931
44	0xbf9d1ab2	-1.2273772
45	0xbf92d699	-1.147174
46	0xbeec7268	-0.46181035
47	0xbfa63dcf	-1.2987612
48	0x3d0695cc	0.0328577
49	0x3e8abdcd	0.27097932
50	0xbf967be1	-1.1756555
51	0x3f9f8f87	1.2465676
52	0xbe9db769	-0.30803993
53	0x3f11db9b	0.56975716
54	0x3f21c972	0.63198006
55	0x3ec55d74	0.38547862
56	0xbe4240ad	-0.18969984
57	0xbee01bc9	-0.43771198
58	0x3f940073	1.1562637
59	0xbe9afded	-0.30271855
60	0xbf8333eb	-1.0250219
61	0x3fb695d7	1.4264477
62	0xbf57ae65	-0.8425048
63	0x3fd15ae5	1.6355864
64	0xbf14f650	-0.58188343
65	0xbf07698e	-0.5289544
66	0x3ffc615f	1.9717215
67	0x3e958b53	0.29207858
68	0x3e2724d8	0.16322649
69	0x3f32cc05	0.6984256
70	0x3f7dc4d0	0.9912844
71	0x3f87c987	1.0608376
72	0xbf58b903	-0.84657305
73	0xbf83b72e	-1.0290277
74	0x3f6b4a50	0.91910267
75	0x3e83b4a1	0.25723746
76	0xbe899dea	-0.2687829
77	0x3f17542b	0.59112805
78	0x3e312007	0.17297374
79	0xbf83ae97	-1.0287656
80	0xbea7f981	-0.32807544
81	0x3f410256	0.7539419
82	0x3edacaa9	0.42732742
83	0x3ececd48	0.40390992
84	0xbeb7b161	-0.35877517
85	0xbf242b1c	-0.6412828
86	0xbe622fdf	-0.22088574
87	0xbee40a72	-0.4453922
88	0xbe83b6d9	-0.2572544
89	0xbf4f9042	-0.81079495
90	0xbf4f622e	-0.81009185
91	0xbefc87b4	-0.49322283
92	0x3e404474	0.18776113
93	0xbf7d2151	-0.9887896
94	0x3c83cc1c	0.016088538
95	0x3f69ea99	0.9137359
96	0xbefe33d5	-0.4964892
97	0x3d0470ee	0.03233426
98	0x3ebe4553	0.37162265
99	0xbe984bc7	-0.29745314
100	0xbe78f2f6	-0.24311432
101	0x3f0e891e	0.55677974
102	0x3f27248d	0.6529015
103	0x3e10cb3b	0.14140026
104	0xbe12bf8b	-0.1433088
105	0xbeaff513	-0.34366664
106	0xbeaa0fb5	-0.3321511
107	0xbe11d986	-0.14243135
108	0x3f82a07d	1.0205227
109	0x3ee3485c	0.44391143
110	0x3ed1ff70	0.41015196
111	0xbeaa6a15	-0.3328406
112	0xbf7379af	-0.9510755
113	0x3ceb3b0f	0.028714685
114	0x3eff5b50	0.49874353
115	0x3e5e99df	0.21738385
116	0xbf24f2a6	-0.6443275
117	0xbfa24683	-1.2677768
118	0xbe9592a2	-0.29213434
119	0x3e04cb16	0.12968096
120	0x3e842cc9	0.25815418
121	0x3e24061e	0.16017959
122	0x3eba0f88	0.36339974
123	0xbe4b739a	-0.19868317
124	0x3d946055	0.072449364
125	0x3f114fa6	0.5676216
126	0x3e20231f	0.15638398
127	0x3e131679	0.14364041
128	0x3f722463	0.9458677
129	0xbf354eb7	-0.70823234
130	0xbea048b2	-0.31305462
131	0xbf6cbd74	-0.9247658
132	0x3db3ab85	0.08772949
133	0xbe3193d7	-0.17341553
134	0x3e4b7e68	0.19872439
135	0x3db09252	0.086216584
136	0x3f836fe8	1.0268526
137	0x3ea78fa4	0.32726777
138	0xbf3705df	-0.71493334
139	0x3f435a71	0.7630988
140	0xbf1dc81d	-0.61633474
141	0x3f75d510	0.9602823
142	0xbc9ba14c	-0.01899781
143	0xbdbb5358	-0.09146756
144	0x3f378776	0.7169107
145	0xbec5c808	-0.38629174
146	0xbf0eefd7	-0.55834717
147	0x3eaa0de8	0.33213735
148	0x3e91a980	0.2844963
149	0x3e090351	0.13380171
150	0x3f1a5517	0.60286087
151	0xbd03748d	-0.032093573
152	0x3e013946	0.12619504
153	0x3f8e2032	1.1103575
154	0x3fa1d162	1.2642024
155	0x3f673e17	0.90329117
156	0x3f786561	0.9702969
157	0x3f1852ca	0.59501326
158	0xbe8ac400	-0.2710266
159	0x3eddb5cd	0.43302765
160	0x3de8937b	0.11356255
161	0xbd08ac91	-0.033367697
162	0xbf149d21	-0.5805226
163	0xbdbcfde6	-0.09228115
164	0x3f4e1913	0.8050701
165	0x3e2ce295	0.16883309
166	0xbe430191	-0.19043566
167	0x3f28e05e	0.6596736
168	0xbeec6f48	-0.4617865
169	0x3f78ec78	0.9723582
170	0x3e8841fa	0.26612836
171	0x3c49f086	0.012325412
172	0x3e77baa2	0.24192289
173	0x3d18ade7	0.03727522
174	0x3c770865	0.015077685
175	0x3f5b102a	0.8557154
176	0xbe838b2e	-0.25692123
177	0x3e2896d4	0.16463786
178	0x3d74c047	0.059753682
179	0x3cb21a5a	0.021741081
180	0xbed72f3b	-0.4202822
181	0x3df1287c	0.117753
182	0xbc372acc	-0.011179637
183	0x3ca1c6d9	0.019748138
184	0xbf029184	-0.5100329
185	0xbeb3a5c5	-0.3508741
186	0x3e5e31a0	0.21698618
187	0xbe6e8ea6	-0.23296604
188	0xbe4cb3f5	-0.19990523
189	0x3f58226c	0.84427524
190	0x3f4d8bee	0.8029164
191	0xbe155eb7	-0.14586912
192	0xbf6218f6	-0.8831934
193	0x3f0955b8	0.5364642
194	0x3d68340f	0.056690272
195	0xbe643c6c	-0.22288674
196	0x3ee9b6a4	0.45647156
197	0x3f135d85	0.57564574
198	0xbf0e97b7	-0.5570025
199	0x3ede1047	0.43371794
200	0xbf3823da	-0.71929705
201	0x3f05389f	0.5203952
202	0xbd36ff6a	-0.044677176
203	0xbea2c349	-0.31789616
204	0x3ea63e11	0.32469228
205	0x3e53dccd	0.20689698
206	0xbe64b8c3	-0.22336106
207	0x3f057389	0.5212942
208	0x3eddec53	0.43344364
209	0xbef6cb61	-0.4820204
210	0x3daee7ec	0.08540329
211	0xbdfd9684	-0.12382224
212	0x3e665bd9	0.22495975
213	0x3dcf3cfe	0.10119055
214	0xbf46bb84	-0.77629876
215	0xbee3cc2d	-0.4449171
216	0x3ea8b8b9	0.32953432
217	0xbe09eea7	-0.13469945
218	0xbe2c3742	-0.16817954
219	0xbd032b75	-0.032023866
220	0xbeb6c396	-0.35696095
221	0x3e2733b9	0.16328324
222	0x3e358c64	0.17729336
223	0xbf400021	-0.75000197
224	0x3f717ca6	0.94330823
225	0xbf1a0446	-0.6016277
226	0x3dd44e14	0.10366455
227	0xbe388738	-0.18020332
228	0x3f2d906b	0.6779849
229	0xbf869f8f	-1.0517443
230	0xbe21e2c2	-0.15809157
231	0x3f461157	0.7737021
232	0xbecf3b94	-0.40475142
233	0xbf3e6253	-0.7436878
234	0xbb6a35c5	-0.0035737616
235	0x3e7fee92	0.24993351
236	0xbea68276	-0.3252141
237	0x3da88107	0.08227735
238	0xbec29e40	-0.3801136
239	0xbedf846b	-0.43655714
240	0xbf149e97	-0.5805449
241	0xbe0b6cbe	-0.136157
242	0x3eb5e946	0.35529536
243	0x3f5d62ec	0.8647907
244	0xbf0bce78	-0.5461192
245	0xbec03384	-0.37539303
246	0xbe1b643d	-0.15174957
247	0xbeaeafbf	-0.3411846
248	0xbf2ea501	-0.68220526
249	0x3f331162	0.699484
250	0x3f9adfdf	1.209957
251	0x4000fcdf	2.015434
252	0xbee0e0d6	-0.43921536
253	0xbe8d82ce	-0.2763886
254	0x3f3d3a79	0.7391735
255	0x3e1e2259	0.1544279

lstm.bias_ih_l0 f4 [128]
0	0x3ed0559d	0.40690318
1	0x3e0da803	0.13833623
2	0x3ef82de9	0.48472527
3	0x3e3d88a8	0.18509161
4	0x3d928e47	0.071560435
5	0x3e114e0f	0.14189933
6	0x3efbd614	0.49186766
7	0xbe719f3f	-0.23595904
8	0x3df0a9bc	0.11751124
9	0x3dc8661b	0.097851
10	0xbe0046d6	-0.12527022
11	0x3ef4151f	0.47672364
12	0x3d4ba864	0.049721137
13	0x3ee86cb0	0.45395422
14	0x3f3b7baf	0.732356
15	0xbe050960	-0.12991858
16	0x3da0fc6e	0.07860647
17	0x3ef237a0	0.47308064
18	0x3d80dc4e	0.0629202
19	0x3ed9a250	0.42506647
20	0x3e44145e	0.19148394
21	0xbe4f73b7	-0.20258985
22	0x3e16192f	0.14658044
23	0xbe4b18db	-0.198337
24	0xbd85d66f	-0.065350406
25	0x3ece43f2	0.40286213
26	0x3f3baf11	0.73314005
27	0x3e80a2c9	0.25124195
28	0x3f3630b8	0.7116809
29	0x3eb0c0db	0.34522137
30	0xbe1bd3ae	-0.15217468
31	0x3bdda248	0.00676373
32	0xbd95b920	-0.073107004
33	0x3de2e349	0.110785075
34	0xbe3fd471	-0.18733384
35	0x3e981493	0.29703197
36	0xbe073cde	-0.13206813
37	0x3e873dfe	0.26414484
38	0x3e02751e	0.12739989
39	0xbdb48eb6	-0.088162825
40	0x3f201bd1	0.62542444
41	0x3d23b91c	0.039971456
42	0x3e9d5dde	0.30735677
43	0x3f241401	0.64093024
44	0x3d5cc557	0.053899135
45	0x3e6b9b5a	0.2300848
46	0xbeb7d224	-0.35902512
47	0x3c8357bb	0.016033044
48	0x3e764e0a	0.24053207
49	0x3e13daef	0.14438985
50	0xbce5a1c2	-0.028031234
51	0x3ebc4378	0.36770225
52	0xbe00bebb	-0.12572758
53	0x3e09f6f0	0.13473105
54	0x3ea60ac2	0.32430083
55	0xbcfb6809	-0.030689256
56	0x3f215f79	0.63036305
57	0x3db96f1d	0.09054396
58	0x3db48b95	0.08815686
59	0x3e96a0bf	0.29419515
60	0xbe74111b	-0.2383465
61	0x3e4cf48e	0.20015165
62	0xbdd47fef	-0.10375964
63	0x3c8221fc	0.015885346
64	0xba73b45b	-0.00092965894
65	0xbebb3187	-0.36561224
66	0x3ea5162c	0.32243478
67	0xbd87fd78	-0.06640142
68	0xbea7f840	-0.32806587
69	0xbd197e29	-0.03747383
70	0x3e018dbb	0.12651722
71	0x3e921b3e	0.2853641
72	0xbde2135c	-0.11038849
73	0x3e75708a	0.23968711
74	0x3d8c5ff0	0.06854236
75	0xbeb2a2a0	-0.34889698
76	0x3dd4df30	0.10394132
77	0x3d15bc63	0.036556613
78	0x3e09948f	0.13435577
79	0xbbbeed3c	-0.0058266204
80	0xbe92f49c	-0.28702247
81	0x3e9c9e7a	0.30589658
82	0x3d9a8199	0.0754425
83	0xbdab75d3	-0.083720826
84	0xbd90d7ad	-0.07072387
85	0x3d5c810b	0.053834002
86	0xbe10e205	-0.1414872
87	0xbe5f6605	-0.21816261
88	0xbef1cde3	-0.47227392
89	0xbd87e46c	-0.06635365
90	0x3b68db90	0.003553126
91	0xba7e50ac	-0.0009701352
92	0xbdf56063	-0.11981275
93	0xbb57e8b2	-0.0032945094
94	0x3e00e17c	0.12586015
95	0xbddd906e	-0.108185634
96	0x3ecc38c4	0.3988706
97	0x3e6153f0	0.22004676
98	0x3f61f48d	0.8826378
99	0xbdaaf6a0	-0.08347821
100	0x3ca1e7fa	0.019763935
101	0x3ed9b20f	0.4251866
102	0x3e8bf737	0.27337047
103	0x3e64fac8	0.2236129
104	0x3eb01575	0.3439137
105	0x3d81603c	0.063171834
106	0x3e40a6e2	0.1881366
107	0x3e8cbe6c	0.2748903
108	0x3db2fd6b	0.08739742
109	0xbc9c916c	-0.019112311
110	0x3f3a5357	0.72783417
111	0xbded3d2d	-0.11583934
112	0x3eb1ee84	0.34752285
113	0x3f24862b	0.64267224
114	0x3ed1e526	0.4099514
115	0x3e3903b1	0.18067814
116	0x3e169305	0.14704521
117	0x3e9ad5f5	0.3024136
118	0x3e1bdbe6	0.15220603
119	0xbecd442f	-0.40091082
120	0x3f49afc1	0.78783804
121	0x3e315bee	0.17320225
122	0x3f11989b	0.5687348
123	0x3f127e46	0.5722393
124	0x3f6461cd	0.8921173
125	0x3ec5758d	0.38566247
126	0xbc06ae80	-0.008220315
127	0xbe036fe8	-0.12835658

lstm.bias_hh_l0 f4 [128]
0	0x3edf12c0	0.43568993
1	0x3ebe924b	0.37220988
2	0x3ed7cab1	0.4214683
3	0x3b7662e4	0.0037595564
4	0x3eaa7d20	0.33298588
5	0x3e735b20	0.2376523
6	0x3eac5ea3	0.33665952
7	0xbeaf6d01	-0.3426285
8	0x3db87c83	0.09008124
9	0x3e0b0c51	0.13578917
10	0x3c771e98	0.015082978
11	0x3f284a10	0.6573801
12	0xbc34b193	-0.011028665
13	0x3ece061e	0.40239042
14	0x3f50eea7	0.81614155
15	0xbe109966	-0.14121017
16	0x3ddcd12e	0.10782085
17	0x3eddafb2	0.43298107
18	0x3e82dc61	0.2555876
19	0x3ee3382a	0.44378787
20	0x3e844b09	0.25838497
21	0x3c6fa283	0.014626148
22	0x3ea76fa9	0.32702377
23	0x3d63311a	0.05546675
24	0xbe0298b9	-0.12753572
25	0x3f1d94d8	0.6155524
26	0x3f648e59	0.89279705
27	0x3e9f488a	0.3111003
28	0x3f5c1df9	0.85983235
29	0x3ebde332	0.370874
30	0x3bce045d	0.0062871412
31	0x3df2f1f6	0.11862557
32	0x3e054ff2	0.13018778
33	0x3dadc324	0.08484486
34	0xbe546e63	-0.20745234
35	0x3e60a5d4	0.21938258
36	0xbeae42f5	-0.3403546
37	0x3e9e92c4	0.30971348
38	0x3e84ed0e	0.25962108
39	0xbe7586ad	-0.23977156
40	0x3ed8f0ec	0.4237131
41	0x3de088b0	0.10963571
42	0x3f0e542a	0.55597174
43	0x3f03456b	0.512778
44	0xbe282926	-0.16421947
45	0x3ed798f1	0.42108873
46	0xbe83e299	-0.25758818
47	0xbdc6baf9	-0.09703631
48	0x3e1ba580	0.15199852
49	0x3badfa0f	0.0053093503
50	0xbea36e4a	-0.3192008
51	0x3e74a398	0.23890531
52	0x3bc9e589	0.006161396
53	0x3e105922	0.14096501
54	0x3e96f61e	0.29484648
55	0x3bd9d934	0.006648207
56	0x3f099130	0.53737164
57	0xbdff3661	-0.12461544
58	0x3e4f54a7	0.20247136
59	0x3eca5762	0.39519793
60	0xbe2ba183	-0.1676083
61	0xbe0989a8	-0.13431418
62	0xbda5bf02	-0.080930725
63	0xbcfa1529	-0.030527668
64	0xbe06c9b4	-0.13162881
65	0xbdecea56	-0.115681335
66	0x3e43b885	0.19113357
67	0xbe26aa9c	-0.1627602
68	0xbdaa1744	-0.08305219
69	0xbe3a5bd0	-0.18199086
70	0x3d68fd90	0.05688244
71	0x3d3b27b4	0.04569216
72	0x3ce45255	0.02787129
73	0x3d8ff3ac	0.070288986
74	0xbcb565e4	-0.022143312
75	0xbea88fae	-0.3292212
76	0x3d134cef	0.03596204
77	0x3d36167d	0.04445504
78	0x3e0dde71	0.13854386
79	0x3da242a0	0.07922864
80	0xbeae2dd5	-0.34019342
81	0x3e3ce4a7	0.18446599
82	0xbe2f3b9b	-0.17112581
83	0x3ca25ff0	0.019821137
84	0xbe7d06f8	-0.2470969
85	0x3e3cac10	0.18425012
86	0xbe7d5fac	-0.24743527
87	0xbdef99af	-0.11699235
88	0xbf04a4ac	-0.5181377
89	0x3ce1a4f0	0.027544469
90	0x3da78bc3	0.08180954
91	0x3d32aea8	0.043623596
92	0xbee4386e	-0.44574302
93	0xbe37abd2	-0.17936638
94	0x3e31330e	0.17304632
95	0xbdec3274	-0.11533061
96	0x3ea760c7	0.32691023
97	0x3f0c79e6	0.548735
98	0x3f72b642	0.94809353
99	0xbe5cc128	-0.21558058
100	0x3e18b80c	0.14913958
101	0x3e892867	0.26788637
102	0x3e18fd95	0.14940484
103	0x3cde19e3	0.027111953
104	0x3efc7df7	0.49314854
105	0x3c832fb1	0.016013952
106	0xbc853cfb	-0.01626443
107	0x3e78cd7f	0.2429714
108	0x3e9a863b	0.30180535
109	0x3e2fdcff	0.17174147
110	0x3f52dcb7	0.82368034
111	0xbddc8112	-0.10766806
112	0x3ebfd067	0.37463686
113	0x3ecea6fe	0.4036178
114	0x3ee77f3e	0.45214266
115	0x3ec33535	0.3812653
116	0x3e3d12c4	0.1846419
117	0x3e5b74a0	0.21431208
118	0x3ece6ae2	0.4031592
119	0xbebc1325	-0.36733356
120	0x3f235741	0.63805014
121	0x3e515727	0.20443402
122	0x3f2a755b	0.6658532
123	0x3ef8eceb	0.48618254
124	0x3f282bf1	0.6569205
125	0x3e9ddb8e	0.3083157
126	0xbe9acc9f	-0.30234239
127	0xbe8dd1b8	-0.27699065

lstm.weight_ih_l1 f4 [128, 32]
0	0x3dbc4294	0.09192386
1	0xbed5ffe0	-0.4179678
2	0x3f08de45	0.53464156
3	0x3f08047a	0.5313183
4	0x3e849c0f	0.25900313
5	0xbe289121	-0.16461612
6	0x3f18c023	0.5966818
7	0x3f269b56	0.65080774
8	0x3ec41b4b	0.38302073
9	0xbed3908d	-0.4132122
10	0x3f63c946	0.88978994
11	0x3f24577a	0.6419598
12	0xbd87945d	-0.06620095
13	0xbf1fba95	-0.62394077
14	0xbf7bf142	-0.98415005
15	0xbef6647e	-0.48123544
16	0xbdfb4e0f	-0.12270748
17	0x3f0e7c2f	0.5565824
18	0xbe98c213	-0.29835567
19	0x3f3a4f85	0.7277759
20	0x3ed9180e	0.42401165
21	0x3ec3c8bb	0.38239083
22	0x3e84c77d	0.25933447
23	0xbcbb88c0	-0.022892356
24	0x3f496e90	0.7868433
25	0xbf972630	-1.1808529
26	0x3e0df91d	0.1386456
27	0x3ec6eac0	0.38850975
28	0xbf92d5d8	-1.147151
29	0xbe1a08dc	-0.15042442
30	0xbe2470e3	-0.16058688
31	0x3e72cbc1	0.23710538
32	0x3e02c739	0.1277131
33	0xbedb4915	-0.42829195
34	0x3f0a8e1b	0.54123086
35	0x3e5dbbcb	0.21653669
36	0x3e1efd92	0.15526417
37	0x3e424526	0.1897169
38	0x3f029b1e	0.5101794
39	0x3e0f7f60	0.14013433
40	0xbd839f38	-0.06426853
41	0xbedd7153	-0.43250522
42	0x3e2cc9b0	0.16873813
43	0x3c8e2a38	0.017354116
44	0xbf38b539	-0.72151524
45	0xbe95ed9c	-0.29282844
46	0x3f48eb93	0.7848446
47	0xbf570206	-0.8398746
48	0x3e6c5705	0.2308007
49	0xbd2ed63a	-0.04268477
50	0xbe804bf6	-0.25057954
51	0xbefc3ff7	-0.4926755
52	0x3e29a675	0.16567405
53	0xbf7272fd	-0.9470671
54	0x3f9a88bd	1.2072979
55	0xbec9531f	-0.3932123
56	0xbf8d01b8	-1.101615
57	0xbf017922	-0.5057546
58	0xbec8a9af	-0.39191958
59	0xbe117bc0	-0.14207363
60	0x3dd89fdb	0.10577365
61	0xbeca60ef	-0.3952708
62	0x3dc19423	0.09452083
63	0xbdd11356	-0.10208766
64	0x3e9fbe4e	0.31199878
65	0xbf4a92bb	-0.7913014
66	0xbe42505d	-0.18975969
67	0x3dafdae3	0.08586671
68	0x3fbc7b7b	1.4725183
69	0x3e9bec18	0.30453563
70	0xbe24d68d	-0.1609747
71	0x3fa26a97	1.2688779
72	0x3eb9b1d8	0.36268497
73	0xbf2e0348	-0.67973757
74	0x3f71c677	0.9444346
75	0x3e80acb7	0.2513177
76	0xbe02360a	-0.12715927
77	0xbe233f18	-0.15942037
78	0xbedb5d8a	-0.42844802
79	0xbf18cce9	-0.5968767
80	0xbf176ebe	-0.59153354
81	0x3f8fc185	1.1230932
82	0x3d077d94	0.033078745
83	0x3f926a06	1.1438606
84	0xbeea6c59	-0.45785788
85	0x3df6544e	0.120277986
86	0xbf6f2993	-0.9342281
87	0xbf101b5a	-0.56291735
88	0x3f6bb9b6	0.9208025
89	0x3f5b9539	0.8577457
90	0x3e9a43cd	0.30129853
91	0x3f6b73a2	0.91973317
92	0xbf8202fc	-1.0157161
93	0x3da3a038	0.07989544
94	0x3e957526	0.2919094
95	0x3f19004a	0.59766066
96	0x3ee22463	0.44168386
97	0x3d1d2d0c	0.03837304
98	0x3ce50899	0.027958201
99	0x3e8f8d47	0.28037474
100	0x3eb721b4	0.357679
101	0xbd5f6f95	-0.054549772
102	0xbc217fa7	-0.009857095
103	0x3e2f3a93	0.17112188
104	0xbe98b8e5	-0.29828563
105	0xbf37a380	-0.71733856
106	0x3ebc76c2	0.36809355
107	0x3eaca321	0.33718207
108	0x3d88d460	0.06681132
109	0xbf83b29a	-1.028888
110	0xbe546366	-0.20741042
111	0xbe325609	-0.17415632
112	0xbd7c4a97	-0.061594572
113	0x3e9fa0a0	0.31177235
114	0x3e6cf2b5	0.2313946
115	0x3f603e76	0.8759531
116	0xbcf756a4	-0.03019268
117	0x3ecf94a8	0.40543103
118	0xbebf234c	-0.37331617
119	0x3f977e37	1.1835393
120	0x3f6c39b3	0.9227554
121	0x3eda589f	0.42645738
122	0x3f309e3e	0.6899146
123	0x3e777e14	0.24169189
124	0x3ea26c8d	0.31723443
125	0xbdc99d0b	-0.09844407
126	0xbe45cce5	-0.19316442
127	0x3f760cb0	0.9611311
128	0x3e215c27	0.1575781
129	0xbf929a87	-1.1453408
130	0x3f7fcaf3	0.9991905
131	0x3d9161c7	0.07098728
132	0x3e677477	0.22603022
133	0x3ebfc0e0	0.3745184
134	0xbe0e0509	-0.13869108
135	0x3f857842	1.0427325
136	0x3ea7cc6f	0.32773158
137	0xbdb08aa3	-0.08620193
138	0x3ebd2a06	0.36946124
139	0xbe98368e	-0.29729122
140	0x3f173257	0.5906119
141	0xbf41541f	-0.75518984
142	0xbd0f2460	-0.0349468
143	0x3e3808a2	0.17972043
144	0xbf020316	-0.5078596
145	0xbe50a6be	-0.20376107
146	0xbd2c5f2c	-0.04208295
147	0xbe3a284e	-0.18179438
148	0x3d01b805	0.031669635
149	0x3efdfe82	0.49608237
150	0xbf3cd294	-0.73758817
151	0x3efb96ed	0.49138585
152	0xbeb86a00	-0.36018372
153	0x3f1aa6aa	0.6041056
154	0xbcc07ffb	-0.023498526
155	0xbf91ac40	-1.1380692
156	0xbf6555ff	-0.89584345
157	0x3d47b0e9	0.0487527
158	0xbf0cfee4	-0.5507643
159	0xbe5eb67a	-0.21749297
160	0x3e6859af	0.22690462
161	0xbf0d51be	-0.55202854
162	0xbf13e905	-0.57777435
163	0x3e078c98	0.13237226
164	0x3f26a6b5	0.65098125
165	0x3f663bb2	0.8993484
166	0x3ebe9e86	0.3723032
167	0xbcfa88c6	-0.030582797
168	0x3ebfe348	0.3747809
169	0xbd77c1b0	-0.06048745
170	0x3f4e7ad9	0.806562
171	0x3f34d555	0.7063802
172	0x3ef54d9e	0.4791078
173	0xbf55f433	-0.83575743
174	0xbf4851cb	-0.78249806
175	0xbf42282b	-0.7584254
176	0xbeb15907	-0.34638235
177	0xbd8d5213	-0.0690042
178	0xbc28a12e	-0.0102923345
179	0x3eb12db5	0.34605184
180	0xbf287aa6	-0.65812147
181	0xbef698c1	-0.48163417
182	0x3f3ed735	0.7454713
183	0x3e7602db	0.24024527
184	0x3fdb466a	1.7130864
185	0xbead11c4	-0.33802617
186	0x3f2776f6	0.65415895
187	0x3e026590	0.12734056
188	0xbf18b13f	-0.59645456
189	0x3f0fe3aa	0.5620676
190	0xbf259494	-0.6467984
191	0x3f15ba0b	0.58487004
192	0x3ebd7d1c	0.37009513
193	0xbfe13bd6	-1.7596385
194	0xbf057dfe	-0.52145374
195	0x3eb9ea75	0.3631169
196	0x3e68e61d	0.22744031
197	0x3e222cb8	0.15837371
198	0x3d1b7680	0.037954807
199	0x3ec43e26	0.38328665
200	0x3f09646c	0.53668857
201	0xbefeb3ae	-0.4974646
202	0xbeab4f65	-0.3345901
203	0x3e43bec9	0.19115748
204	0xbf8623b6	-1.0479648
205	0xbea2a24c	-0.31764448
206	0xbeba74f9	-0.36417368
207	0xbf2885ad	-0.65828973
208	0xbc503d9a	-0.012709999
209	0xbeb76648	-0.35820222
210	0xbf3cced8	-0.7375312
211	0x3eaafb1e	0.33394712
212	0x3e5633b2	0.20918158
213	0x3eaf43d0	0.34231424
214	0x3f6fda72	0.93692696
215	0xbe9cd9f1	-0.30635026
216	0xbf2f1957	-0.6839804
217	0xbe88c4fe	-0.26712793
218	0x3f3dfb9a	0.7421204
219	0x3ea258f8	0.31708503
220	0x3efcdc5b	0.49386868
221	0x3f774e82	0.9660417
222	0xbd8291ad	-0.06375442
223	0x3d6f863a	0.058477618
224	0x3ec4447e	0.38333505
225	0xbfa033d0	-1.2515812
226	0x3ec76190	0.38941622
227	0x3ed2f196	0.4119994
228	0x3ea854e8	0.32877278
229	0x3b1db246	0.0024062558
230	0x3d991a50	0.07475722
231	0x3ef305af	0.47465274
232	0x3f637e7c	0.88864875
233	0xbe8e6e6d	-0.27818623
234	0x3ec55c2c	0.38546884
235	0x3f72eb35	0.9489015
236	0xbd5cc90f	-0.053902682
237	0x3db8ac11	0.09017194
238	0xbf3f4257	-0.747106
239	0xbf484b6a	-0.7824007
240	0xbe56a586	-0.2096158
241	0x3eaded26	0.33969992
242	0xbe36d34b	-0.1785404
243	0xbcbb8b9f	-0.022893725
244	0xbd6fbbf5	-0.05852886
245	0xbe7e4995	-0.24832757
246	0xbd99ccbd	-0.07509754
247	0xbe0e4b01	-0.13895799
248	0xbf45fd38	-0.77339506
249	0xbf7f4dec	-0.99728274
250	0x3eab953f	0.33512303
251	0x3da363ab	0.079779945
252	0xbf9e5d2c	-1.2372184
253	0xbe501152	-0.20319107
254	0x3db0f7a3	0.08640983
255	0x3f9be13d	1.2178112

lstm.weight_hh_l1 f4 [128, 32]
0	0x3e174a30	0.14774394
1	0xbf483d44	-0.78218484
2	0xbf6afcbf	-0.9179191
3	0x3e0c27c5	0.13687046
4	0x3ee17677	0.44035694
5	0xbf8c9ae9	-1.0984775
6	0xbf092fa6	-0.5358833
7	0x3e07a7e1	0.13247634
8	0x3f262b6c	0.64910007
9	0xbf8813d6	-1.0631053
10	0xbed134be	-0.40860552
11	0xbe806081	-0.25073627
12	0xbeaae285	-0.33375946
13	0xbe1a1ca2	-0.15049985
14	0xbdc7fcdc	-0.09765026
15	0xbf41c0ed	-0.75685006
16	0xbf896521	-1.0733987
17	0x3f320a0e	0.6954659
18	0xbe005791	-0.12533404
19	0x3f096765	0.5367339
20	0xbf4f5850	-0.8099413
21	0xbd4713ed	-0.048602987
22	0xbea47162	-0.32117754
23	0x3d1a2410	0.037632048
24	0x3f26a12b	0.6508967
25	0x3e3fd91c	0.18735164
26	0x3d6c2fa2	0.057662614
27	0x3e18ca74	0.1492098
28	0xbf760118	-0.9609542
29	0xbea20078	-0.31640983
30	0xbf243c4a	-0.64154494
31	0xbf20bf3b	-0.62791795
32	0xbf7c8b76	-0.986503
33	0x3d0d0034	0.03442402
34	0x3eeb36f3	0.4594036
35	0x3f4656ff	0.77476496
36	0xbf5173ee	-0.8181752
37	0xbef6d518	-0.48209453
38	0xbf00521e	-0.501253
39	0xbd23e772	-0.040015645
40	0x3fb3a21a	1.4033844
41	0x3e962343	0.29323778
42	0xbf41da19	-0.75723416
43	0x3d47e0ef	0.048798498
44	0x3e652663	0.22377925
45	0xbdd2dff1	-0.1029662
46	0x3f1c3de7	0.61031955
47	0xbf162195	-0.5864499
48	0xbfee6a40	-1.8626175
49	0x3f3308b2	0.69935143
50	0x3eb88ca9	0.36044815
51	0xbe262016	-0.16223177
52	0xbf8ad85e	-1.084728
53	0xbf8076a3	-1.0036205
54	0xbd85e657	-0.065380745
55	0xbeb7bffa	-0.35888654
56	0x3f744eca	0.9543272
57	0xbede15bf	-0.43375966
58	0x3f58839f	0.8457584
59	0xbe6f860f	-0.23390983
60	0xbf40512a	-0.75123847
61	0xbeee3d0d	-0.46530953
62	0x3ed773bd	0.4208049
63	0xbfb29ff1	-1.395506
64	0xbf4759b7	-0.7787127
65	0xbf282c59	-0.6569267
66	0xbf8ab221	-1.0835611
67	0xbf92e5c1	-1.1476365
68	0x3ed3e794	0.41387618
69	0xbe8bd7cc	-0.27313077
70	0xbf2c89ae	-0.6739758
71	0xbe948734	-0.29009402
72	0xbf040def	-0.5158376
73	0xbf8e3a7f	-1.1111602
74	0xbeec6739	-0.46172503
75	0xbd83623a	-0.064152196
76	0xbd81860e	-0.06324397
77	0xbf062276	-0.52396333
78	0xbe170e77	-0.14751612
79	0x3ed991af	0.4249396
80	0x3ecc440d	0.3989567
81	0xbf266bf1	-0.65008456
82	0xbf7922e8	-0.9731889
83	0xbd9d0e37	-0.07668727
84	0x3e4fe31c	0.20301479
85	0x3efa2fa4	0.48864472
86	0x3f140a35	0.57828075
87	0xbed09153	-0.40735874
88	0xbf0d9bf3	-0.55316085
89	0xbd8cfbdd	-0.068839766
90	0x3da90f15	0.0825483
91	0x3ea04f54	0.31310523
92	0x3db8d84c	0.0902563
93	0xbcd78573	-0.02630875
94	0x3e1bccfe	0.15214917
95	0x3da1dbbf	0.07903241
96	0x3e9c73e8	0.3055718
97	0x3f5853a8	0.8450265
98	0x3f1cd77d	0.6126631
99	0x3dba4a5f	0.090962164
100	0xbf064bfb	-0.52459687
101	0xbe3512d8	-0.1768297
102	0xbe2a3631	-0.16622235
103	0xbea02197	-0.31275627
104	0x3e850de2	0.25987154
105	0xbeaf37ea	-0.34222347
106	0xbe0ce747	-0.137601
107	0x3e2cedfa	0.16887656
108	0x3f0ff04e	0.5622605
109	0xbe386669	-0.18007816
110	0xbe2968e9	-0.16543926
111	0xbf440a61	-0.76578337
112	0x3d81417b	0.063113175
113	0x3e5d6a17	0.21622501
114	0xbf072c10	-0.5280161
115	0x3ea48061	0.32129195
116	0x3e466668	0.19375002
117	0xbf36a498	-0.713449
118	0xbeb530b8	-0.35388732
119	0x3f94bcfe	1.1620176
120	0xbbbc6df5	-0.0057504126
121	0x3ee56863	0.44806203
122	0x3ea71271	0.32631257
123	0xbc65c149	-0.014023134
124	0xbef81777	-0.48455402
125	0x3f44a2cd	0.76810914
126	0x3f3e03ff	0.7422485
127	0x3f762592	0.9615108
128	0xbee9b6e8	-0.4564736
129	0x3f3d8235	0.74026805
130	0xbf571366	-0.84013975
131	0x3ec66333	0.38747558
132	0x3fb637c7	1.4235772
133	0x3de1a24b	0.11017283
134	0x3e3eaf78	0.18621624
135	0x3f01d0aa	0.5070902
136	0xbd932ac1	-0.07185889
137	0xbe4f8f5c	-0.20269531
138	0x3e74ae6f	0.23894666
139	0xbed171a8	-0.40907025
140	0xbdcc9473	-0.09989252
141	0x3f375e73	0.71628493
142	0x3f16ab19	0.58854824
143	0xbe714d73	-0.23564701
144	0x3ebb3adf	0.36568353
145	0x3f6907ad	0.9102734
146	0x3ec84a15	0.3911902
147	0xbebdf3ab	-0.37099966
148	0x3e92e59f	0.28690812
149	0xbebf9f33	-0.37426147
150	0x3f147ea0	0.58005714
151	0xbfaeb107	-1.3647774
152	0xbf620c85	-0.88300353
153	0xbe8501cc	-0.25977933
154	0x3f1aa2fd	0.6040495
155	0xbe139b3e	-0.14414689
156	0x3e12cd70	0.1433618
157	0xbeca223b	-0.3947924
158	0xbdde3734	-0.10850373
159	0xbf0ce266	-0.55032957
160	0x3f09f539	0.53889805
161	0x3f3d6d77	0.73995155
162	0xbec2ec11	-0.3807073
163	0xbeebb81f	-0.4603891
164	0xbf3ac53f	-0.72957224
165	0xbf7dfaaf	-0.9921064
166	0x3ecec037	0.40381023
167	0x3f05c022	0.52246296
168	0x3ed74190	0.42042208
169	0xbe9e84bd	-0.30960646
170	0x3ee82dcb	0.45347437
171	0x3f0e35ad	0.5555065
172	0xbee70a47	-0.45125028
173	0xbd1f3391	-0.038867537
174	0x3eab63b8	0.33474517
175	0xbf035d9d	-0.5131472
176	0x3e64d8c9	0.22348322
177	0xbf78e3f8	-0.9722285
178	0x3e0af7f4	0.13571149
179	0x3f3da12f	0.7407407
180	0xbd895712	-0.067060605
181	0x3f02ff92	0.5117122
182	0xbe57e083	-0.21081738
183	0x3eb1b0d1	0.34705213
184	0xbe8f0b7f	-0.27938458
185	0xbf37b41c	-0.717592
186	0x3ddd2cb9	0.10799546
187	0xbf877cbe	-1.0584943
188	0xbe989745	-0.2980291
189	0xbe1423d3	-0.14466791
190	0xbf3e57bf	-0.7435264
191	0x3e0c3f93	0.13696127
192	0x3eb1cdde	0.34727377
193	0x3e497a41	0.19675542
194	0xbf6fa1e3	-0.93606395
195	0x3d98381b	0.07432576
196	0x3db25454	0.087074906
197	0xbf045693	-0.516946
198	0x3d1efea3	0.03881706
199	0x3eec6bbd	0.46175948
200	0x3f5d8c62	0.8654233
201	0xbdaade88	-0.08343226
202	0x3ec34c87	0.38144323
203	0x3f170c91	0.5900355
204	0x3e44c3d8	0.19215333
205	0xbf1a7092	-0.6032802
206	0x3f5fab5d	0.87370855
207	0xbde1ff11	-0.11034978
208	0xbf69b1b6	-0.9128679
209	0x3ea92282	0.3303414
210	0xbf7b042e	-0.9805325
211	0x3efe0857	0.49615738
212	0xbe884e6d	-0.26622334
213	0x3f1f55e4	0.62240434
214	0x3e4a738e	0.19770643
215	0x3f42288c	0.7584312
216	0xbeea6858	-0.45782733
217	0x3f06f2cd	0.52714235
218	0x3f6835b7	0.9070696
219	0xbf3173ea	-0.69317496
220	0xbf636239	-0.8882175
221	0xbd6b2fce	-0.057418637
222	0xbf3249dc	-0.6964395
223	0x3ededd63	0.4352828
224	0x3dfcf19a	0.12350769
225	0xbeeef6c9	-0.46672657
226	0xbf0572e4	-0.52128434
227	0x3ea91265	0.33021846
228	0x3ddf5307	0.10904508
229	0xbfcda1a2	-1.6064951
230	0xbe0c5d1d	-0.13707395
231	0xbcafaea8	-0.021445587
232	0x3ea2cb5c	0.31795776
233	0xbf914308	-1.1348581
234	0x3e4d6df7	0.2006148
235	0x3ca6446d	0.0202963
236	0x3ebefe09	0.37303188
237	0x3f13539a	0.5754944
238	0xbe6ba466	-0.23011932
239	0xbe83e1dc	-0.25758255
240	0xbe99a83f	-0.30011174
241	0xbceca9a5	-0.028889487
242	0x3edc66b3	0.43047103
243	0xbe2cb404	-0.16865546
244	0xbf13836e	-0.5762242
245	0x3e52184f	0.20517085
246	0xbe11b3e0	-0.14228773
247	0x3dd5745e	0.10422586
248	0xbe9639f5	-0.29341093
249	0x3ef3d847	0.47625944
250	0x3ec16bd5	0.37777582
251	0xbe37d5f5	-0.17952712
252	0xbee187a3	-0.44048795
253	0x3ec876c7	0.3915312
254	0xbe2d777b	-0.1694011
255	0xbecc2036	-0.39868325

lstm.bias_ih_l1 f4 [128]
0	0x3ea3e50c	0.32010686
1	0x3e3ce43b	0.18446438
2	0x3f0fae05	0.5612491
3	0x3d1c8489	0.038212333
4	0xbda69759	-0.08134336
5	0x3e4273e3	0.1898952
6	0x3e17bea5	0.14818819
7	0x3ea32896	0.31866902
8	0xbe7c2487	-0.24623309
9	0xbd4356e2	-0.04769028
10	0xbb6949c2	-0.0035596942
11	0x3da68d49	0.08132417
12	0x3d8467b8	0.06465095
13	0x3eacf818	0.3378303
14	0x3f237cf6	0.6386255
15	0x3ec6c434	0.38821566
16	0x3d970cae	0.07375465
17	0x3bd4a95f	0.006489917
18	0x3ee2d252	0.44301087
19	0x3d9abcf3	0.075555705
20	0x3ec5b56d	0.3861498
21	0x3d6cbda0	0.057798028
22	0x3ece1643	0.4025136
23	0x3e09ad81	0.13445093
24	0x3f10e107	0.56593364
25	0x3e46061a	0.19338265
26	0x3e9c527b	0.30531678
27	0x3f21093f	0.62904733
28	0xbe3c16de	-0.18368098
29	0x3e59b1c9	0.21259226
30	0x3eaa0e40	0.33213997
31	0x3e720414	0.23634368
32	0x3dbcca6d	0.09218297
33	0x3e22a3b7	0.15882765
34	0xbdc68d8c	-0.09694967
35	0xbe3ba2d0	-0.18323827
36	0xbe5f3c1c	-0.21800274
37	0xbeb8352f	-0.35978076
38	0xbe0d3b5c	-0.13792175
39	0xbdac4505	-0.08411602
40	0xbeab46ea	-0.3345254
41	0x3d2c0734	0.041999057
42	0xbe96478a	-0.29351455
43	0xbde58614	-0.11207214
44	0xbe2333e4	-0.15937763
45	0xbd9c3103	-0.07626536
46	0xbe4890de	-0.19586512
47	0xbe8c6fef	-0.2742915
48	0x3ea5dce0	0.32395077
49	0xbea4fdc5	-0.3222486
50	0x3d647f11	0.055785242
51	0xbe0c11dc	-0.13678688
52	0x3e1d256a	0.15346304
53	0xbdc81581	-0.097697265
54	0x3cc0171e	0.023448523
55	0x3e36502d	0.17804022
56	0x3e7940f4	0.24341184
57	0xbe71cbd6	-0.23612913
58	0xbe8cbc26	-0.27487296
59	0xbeedae37	-0.46421978
60	0x3e53cb10	0.20682931
61	0x3e45bb03	0.1930962
62	0x3d619973	0.05507798
63	0x3e462734	0.19350892
64	0xbe45b034	-0.19305497
65	0x3cc6fa9e	0.024289425
66	0xbead878c	-0.33892477
67	0xbe509c9a	-0.20372239
68	0x3e209558	0.1568197
69	0x3dd99f3e	0.10626076
70	0xbe2e2ff5	-0.17010482
71	0xbdd18910	-0.10231221
72	0xbb49bf04	-0.003078402
73	0xbd2f5cde	-0.042813174
74	0xbe572397	-0.2100967
75	0x3e338df8	0.17534626
76	0x3dc37a31	0.095447905
77	0x3c2afd4b	0.010436366
78	0xbe1adee7	-0.15124093
79	0xbdf4bbf5	-0.119499125
80	0x3e882fc6	0.26598948
81	0xbe2d53af	-0.16926454
82	0x3e24f09e	0.16107413
83	0xbd8024d7	-0.06257027
84	0xbe0fa173	-0.14026432
85	0x3d95999c	0.07304689
86	0x3d6e8ea0	0.058241487
87	0x3e1e6fa0	0.15472269
88	0xbd91f79a	-0.071273044
89	0xbe4a5495	-0.19758828
90	0x3dbb60c4	0.09149316
91	0x3e4e006b	0.20117347
92	0x3e8eb519	0.27872542
93	0xbde213e4	-0.1103895
94	0x3de34774	0.11097613
95	0xbe18f461	-0.14936973
96	0x3f01354a	0.5047194
97	0x3e9f3eee	0.311027
98	0x3ed2c387	0.411648
99	0x3e3e49d9	0.18582858
100	0xbd145c42	-0.036220796
101	0x3e8c052b	0.27347693
102	0x3db23c09	0.08702857
103	0x3e9b5021	0.3033457
104	0x3d35cfc0	0.04438758
105	0xbe516432	-0.20448378
106	0x3e8e4bf5	0.27792326
107	0x3ef09031	0.4698501
108	0x3e3490ac	0.17633313
109	0x3ebc0116	0.36719579
110	0x3ee22e50	0.4417596
111	0x3f0eb69a	0.5574738
112	0xbcdfb8f6	-0.027309876
113	0xbd982f11	-0.07430852
114	0x3e59e798	0.21279752
115	0x3da42eb6	0.08016722
116	0x3eb4cd30	0.35312796
117	0x3db3ca74	0.08778849
118	0x3f0cdef6	0.5502771
119	0x3e2e7f4e	0.1704075
120	0x3f258cdb	0.64668053
121	0x3ec28110	0.37989092
122	0x3e8c1147	0.27356932
123	0x3ecbc4b5	0.39798513
124	0xbe40b064	-0.18817288
125	0x3ead5d5a	0.33860284
126	0x3f305a07	0.6888737
127	0x3eb53a4e	0.35396045

lstm.bias_hh_l1 f4 [128]
0	0x3e9d0064	0.3066436
1	0x3eb694f4	0.35660517
2	0x3e7632eb	0.24042861
3	0x3c7b06a5	0.015321408
4	0xbdc571ca	-0.09640844
5	0x3d4fdd67	0.050748255
6	0xbb28ed15	-0.0025776078
7	0x3e87504d	0.26428452
8	0xbe7e5636	-0.24837574
9	0xbd8cc74b	-0.068739496
10	0xbbd2f140	-0.0064374506
11	0x3dab6605	0.08369068
12	0x3de7d13f	0.113192074
13	0x3e60675c	0.21914428
14	0x3ed1a8b4	0.40949023
15	0x3f2340e1	0.6377087
16	0x3e22233e	0.15833756
17	0xbdcb5548	-0.099283755
18	0x3ea77a78	0.32710624
19	0xbe77429f	-0.24146508
20	0x3ea35b76	0.31905717
21	0xbdf0de2f	-0.11761128
22	0x3ef67d41	0.48142436
23	0x3e8e9104	0.27845013
24	0x3f0f2183	0.5591051
25	0x3eff496b	0.498607
26	0x3e36c3f2	0.17848185
27	0x3eb44a6e	0.35213035
28	0x3e0bb36a	0.1364266
29	0x3e2577ba	0.16158953
30	0x3f0023e8	0.5005479
31	0x3de6a43f	0.11261796
32	0x3eadcdb6	0.33946007
33	0x3c3a5b51	0.011374311
34	0xbea4e688	-0.3220713
35	0xbdbdde0a	-0.09270866
36	0xbe0628ce	-0.13101503
37	0xbeb48ec4	-0.35265172
38	0xbcadde54	-0.021224178
39	0xbe5c34a4	-0.21504456
40	0xbe5434a7	-0.2072321
41	0xbe2efbcf	-0.17088245
42	0xbe94c7c5	-0.29058662
43	0xbe7edc83	-0.24888806
44	0xbe016893	-0.12637548
45	0xbdf8c575	-0.12147037
46	0xbdd8156b	-0.1055096
47	0xbef19745	-0.47185722
48	0x3e804188	0.25049996
49	0xbec9fe5b	-0.3945187
50	0x3dce68fe	0.100786194
51	0xbe88dc9e	-0.26730818
52	0x3e9436c9	0.28948048
53	0x3d8a962a	0.06766923
54	0x3e301eb2	0.1719921
55	0x3e2dcab3	0.16971855
56	0x3e4d2695	0.20034249
57	0xbda5b348	-0.08090836
58	0xbdaf6d3f	-0.08565759
59	0xbe8fa946	-0.28058833
60	0x3e6044dc	0.21901268
61	0x3de3c817	0.111221485
62	0xbe63a6fa	-0.22231665
63	0x3e355b66	0.17710647
64	0xbe2b62de	-0.16736934
65	0x3e401206	0.18756875
66	0xbd97fcc5	-0.07421259
67	0xbe0a1833	-0.13485794
68	0x3e710f67	0.23541032
69	0x3dc0158b	0.09379109
70	0x3cbf03d3	0.023317253
71	0x3db360f1	0.087587245
72	0x3d9ac029	0.07556183
73	0x3e0c5621	0.1370473
74	0xbe49020f	-0.19629692
75	0xbdf5d07f	-0.12002658
76	0x3b8eea58	0.004361432
77	0xbd0c4225	-0.034242768
78	0x3d87a6f7	0.06623643
79	0x3cd0f8f2	0.025509331
80	0x3d92f408	0.071754515
81	0xbe9469af	-0.2898688
82	0x3d22555f	0.039632197
83	0xbd97b62f	-0.07407796
84	0x3d32080a	0.043464698
85	0xbe2861e7	-0.16443597
86	0x3ebd51e4	0.3697654
87	0xbe00eeea	-0.12591138
88	0xbe000167	-0.12500535
89	0xbe49d6ad	-0.19710799
90	0xbdcd666c	-0.10029301
91	0x3d970788	0.07374483
92	0x3e0b8bcf	0.13627551
93	0xbd798958	-0.060921997
94	0xbe26f641	-0.16304876
95	0x3d541ee4	0.051787272
96	0x3f1061b2	0.5639907
97	0x3dfb467a	0.12269302
98	0x3e6d63da	0.23182622
99	0x3e35faec	0.177715
100	0xbd8a0668	-0.06739503
101	0x3eb510d2	0.35364395
102	0x3df5cc18	0.120018184
103	0x3e551c82	0.20811656
104	0xbe1ce88d	-0.15323086
105	0xbe7d3e9c	-0.24730915
106	0x3dd9d776	0.10636799
107	0x3e86550c	0.2623676
108	0x3e88fb2e	0.26754135
109	0x3e89d13a	0.2691744
110	0x3f01a6f0	0.5064535
111	0x3f1f12b1	0.62137896
112	0x3e248dbd	0.16069694
113	0x3d43edfb	0.047834378
114	0x3d9524dc	0.07282421
115	0x3dae4626	0.085094735
116	0x3ea98b80	0.33114243
117	0xb7ad30b4	-2.0645886e-05
118	0x3f1ba846	0.6080364
119	0x3ddc17a5	0.10746697
120	0x3ef9ac12	0.48764092
121	0x3ec21528	0.37906766
122	0x3e4369ba	0.190833
123	0x3ee75cd0	0.45187998
124	0xbe3bad0a	-0.18327728
125	0x3e41cb77	0.18925272
126	0x3f151fd9	0.5825172
127	0x3e84bd7a	0.2592581

fc.weight f4 [1, 32]
0	0xbf01fd7e	-0.50777423
1	0x3f7bb2c4	0.9831965
2	0x3eda2f56	0.4261424
3	0x3e8d3809	0.27581814
4	0xbf28cd61	-0.65938383
5	0x3efaf3e2	0.49014193
6	0xbefe6bb7	-0.49691555
7	0xbf38eb5c	-0.7223413
8	0x3e841d73	0.25803718
9	0x3f176a93	0.59146994
10	0xbef3551a	-0.47525865
11	0x3f0c0d32	0.54707634
12	0x3ede2837	0.43390056
13	0x3ee9b08c	0.45642507
14	0xbf429f9f	-0.7602481
15	0xbeeac092	-0.45850044
16	0xbeae4810	-0.34039354
17	0xbe0f6e45	-0.14006908
18	0x3f1f4ac7	0.62223476
19	0x3e010afe	0.1260185
20	0xbd7cef0d	-0.061751414
21	0xbee2d177	-0.44300434
22	0x3f06370e	0.52427757
23	0x3eb336db	0.3500279
24	0xbe7f5fcd	-0.24938889
25	0xbe3490ce	-0.17633364
26	0xbee0e114	-0.4392172
27	0x3ec5b6cd	0.38616028
28	0xbec5ff4a	-0.38671333
29	0x3efc0c1e	0.49227995
30	0x3f0481ba	0.5176045
31	0x3f693695	0.9109891
